project_checkpoints/best_deeplob.pth (torch, 338133 bytes, 16 tensors)

conv.0.weight f4 [32, 1, 1, 2]
00000000: c848 303f 92f4 af3a 5218 073f 61c6 84bd
00000010: f986 203f 9d8d 563f 98c1 883e 1fae 14bf
00000020: 6c37 563d bb2a 1d3f 32fc 6c3e 50ca aabd
00000030: 61c0 733e a480 c2bc 6c62 38bf f1be 953e
00000040: e440 27bf f570 09bf 73d2 263f b458 8b3d
00000050: c34e 303f abf6 583d 07ca a5be 5f76 3ebf
00000060: e220 70be 0495 10bf c27a e2be 301f 353f
00000070: b01e c7be 1e2d 8ebc de8d 33bd 62da 033f
00000080: 0e17 3abf 7351 1bbf e0de 9ebd 987d 80be
00000090: 4261 763e 858d 343e 7eb6 3dbf b973 25bf
000000a0: e5b9 9d3e 9acb f43d 0384 423d 0b62 3cbe
000000b0: d59e ba3e c057 20bf 34ed 1fbd e55c b9be
000000c0: e34a 453f 4818 603f 825a 14bf 7c3c 72bf
000000d0: e8c8 81bf 442f 5fbf 1483 193f c5b4 02bf
000000e0: 99dd b1be a1bc 893e 99b4 0f3e 55ce 163f
000000f0: 1e68 313d 5371 2d3d 6223 9cbe 2d2d 53bf
0.68861055 0.0013424328 0.52771485 -0.0648315 0.6270595 0.83809835 0.267102 -0.5807819
0.05229895 0.61393327 0.2314308 -0.08339369 0.23803855 -0.023742981 -0.7202518 0.2924724
-0.6533339 -0.53687984 0.6516487 0.06804028 0.6887018 0.052969616 -0.32380697 -0.7439937
-0.23450044 -0.5647738 -0.44234282 0.70750713 -0.388906 -0.017355498 -0.043836467 0.515051
-0.7269143 -0.60671157 -0.07757354 -0.2509582 0.24060538 0.1763211 -0.74106586 -0.64629704
0.3080589 0.119528964 0.047489177 -0.18396775 0.36449304 -0.62633896 -0.039044574 -0.36203685
0.77067393 0.8753705 -0.57950604 -0.9462354 -1.0139437 -0.87181497 0.59965634 -0.5105708
-0.34739378 0.26901725 0.14033736 0.5890859 0.043312185 0.042344403 -0.30495745 -0.8249081

conv.0.bias f4 [32]
00000000: 8ef6 163d bd6b a63e da70 1fbf 5200 b2be
00000010: 19b4 4c3f 2d15 2fbe e5b9 203f b19d 5f3e
00000020: 9b0e d63d c442 8dbe 3b7a 3bbe d3a5 f1be
00000030: 41a6 bb3e ddc1 b93e dea7 1cbf ff2c f53e
00000040: dc01 f23d 4ff4 aa3e 426f 223f b2cd d33d
00000050: 8d58 b83e 7a71 273f 228f 40be e275 213f
00000060: bfb0 4b3c 88e3 013f 0016 99be 43f2 953e
00000070: 7776 d53e b3ee a43e 9c04 023f bcec 833e
0.036856227 0.32504073 -0.6228157 -0.3476587 0.7996231 -0.17097922 0.6278365 0.21837498
0.104520045 -0.2759 -0.18308346 -0.47196826 0.3665028 0.36280718 -0.61193645 0.47885892
0.11816761 0.33389518 0.63451016 0.10341968 0.3600506 0.65407526 -0.18804601 0.630705
0.012432276 0.5073781 -0.29899597 0.29286394 0.41691944 0.32213363 0.50788283 0.25766551

conv.2.weight f4 [32, 32, 4, 1]
00000000: 1aa2 82bd 9b66 83bd ff9a 42bd 96f7 063d
00000010: 34b5 a7bd 5050 89bd b2bf 2fbd 789a f3bc
00000020: 1e61 f33d 92aa 453d 34f7 d83d fe0e 1e3d
00000030: db09 5ebc cdde 06bd 7f2d a4bc e71a 15bc
00000040: 8cb5 24bd 80ee 8fbd f738 94bd d15e 76bd
00000050: 2e68 b2bc 42e6 7ebd ddf5 af3d 1036 933d
00000060: 9c1b 21bd fbca c53c 0ddf 2cbd 9f53 f63c
00000070: 6caf b73b 5745 53bd c4d1 b7bd 5d19 3abd
00000080: 82a4 61bd 7b86 6dbd e5b8 acbd c285 54bd
00000090: dad2 1b3d 0471 b6bb e121 06bc b6e7 a93d
000000a0: 6b55 18bd a574 e53c a180 83bc 8690 1ebd
000000b0: 59e5 a03d 9c33 6d3d 58ed c33c 46e6 a23d
000000c0: e99c 513d d195 67bd 45e6 9b3a 03d6 4fbd
000000d0: 5553 5b3d 9ef0 28bd 6647 863c 0ff1 3cbd
000000e0: 6fb4 b1bb cf87 3ebc ebfb 8d3c 7b2a dd3c
000000f0: 2987 08bd e601 853d 3874 78bd c96a e7bc
00000100: 56ee 4fbd 2261 6f3d 3478 1b3d 940d 80bd
00000110: 89cb b5bc 62c1 88bd b97b 42bd 047c 51bd
00000120: 9e5b b73c b946 86bd bd2d 11bd a0f1 eebd
00000130: c323 383d 3415 ce3b b1fe 94bd 526c 143d
00000140: bbe8 dfbd a851 e9bd f43c 133c 833a 34bd
00000150: d9e7 b2bd 6085 aebc 170f 6d3c 51aa 8cbd
00000160: 9bb7 3d3c eab5 023d 1aad 3fbd a215 a0bd
00000170: 62be 99bd eabe 13bc a60a c93c a00b afbd
00000180: 84b5 473c 72ce 593d f9cc 043c 3f9c 06bd
00000190: ed58 49bd 9c92 5a3d ecfb d73b 145a ccbd
000001a0: f782 bb3c 0551 bebd ed6a 7f3d 21fb 933d
000001b0: 840c 223d cd7b 353d 77d7 55bd 7f0b 67bd
000001c0: 67a8 a6bd 0a55 d3bd 3a0a 6e3c 7787 bdbd
000001d0: e121 94bd e856 8fbd 5ad4 72bd 578e b7bd
000001e0: ca1c 76bd 8533 503d c8b7 92bd 1ac1 9dbd
000001f0: 1d09 c2bb 40d3 683d 483d 093d b7e5 85bd
00000200: 5725 823c 0a15 023d 4101 a2bc 931d b9bd
00000210: f8f3 153d 1bc2 ba3d 40b9 123e 5d11 443d
00000220: ff7f e5bd 6a49 d0bd 9b28 bfbd 507b c7bd
00000230: 0804 84bd 53c4 3ebd 59f7 eabd 52c6 a43d
00000240: 7901 023d 2819 003d b182 413c cdef 913d
00000250: ab1d b33d 4cec 64bd bdc3 e2bc 783c 69bd
00000260: 0a9f 183e 1671 1abc d2bb 953c 1d6c 3a3d
00000270: 63be d23b d84c bfbd 474b 963c 2308 c43c
00000280: a949 953d d609 c1bc 044e c43c da49 e3bc
00000290: 6d7a 3abd 6766 0c3d fcce d0bd 4d8c 42be
000002a0: 649e 833d 6f6b 303d ac4c 85bc 60cd 0abe
000002b0: f10a d7bc 8919 93bd a26a 17be 4f6d 9bbd
000002c0: 8834 313d e2c9 073b bb1b 173d 6e31 df3d
000002d0: 5f7d 78bd 1c44 5d3d 670e 853d 393a 573d
000002e0: c372 983d 4610 4c3d 408d 6e3d a931 143d
000002f0: 2eda ba3d 9982 c0bc 6953 97bc 58fb b6bc
00000300: 7f06 183d ac81 8dbd a3fe 1f3d c51d c33d
00000310: 397e d13d 0bc0 a8bc b798 5abc 5c0b c23c
00000320: e9f8 0f3d 3d9e d33b 27ac d5bc 6470 7f3d
00000330: 10b4 1fbd 5773 e73c 77d6 83bd 53fe 04bd
00000340: b8c6 6c3d ed4d 8f3c 84ba 1a3d 552d 2ebd
00000350: f4fe e13d b437 d23c a5a8 2c3d ab12 ac3d
00000360: c6f0 65bd a1b0 6bbd 6eaf bf3c b9d3 793d
00000370: 8dcc a03d 63d3 273c 9272 033e 0312 0e3e
00000380: 0dab 77bd 1b5e 9fbd 5f38 593c 4128 c2bd
00000390: 5f80 1b3d a644 ef3d 2ef7 96bc d27e 023e
000003a0: 1ca0 0b3c d495 83bd 67f3 c3bc 04e8 873d
000003b0: c558 8a3d 225b 6c3d a7d3 9d3c 0bff af3d
000003c0: 0f63 3abd 6fb8 dd3d bfda b63d 6788 3cbd
000003d0: d785 a33d 197a 813c b798 823c b67c 90bc
000003e0: 54cf 803d c663 1d3e 250f e33d a46a f43d
000003f0: da7e a1bc cca3 c63c 9739 193c f78a 043e
-0.06378575 -0.06416055 -0.047511097 0.03295096 -0.08188859 -0.067047715 -0.042907424 -0.029736742
0.11883758 0.04825837 0.10594025 0.038588516 -0.013552154 -0.032927323 -0.020041225 -0.009100652
-0.0402122 -0.07027912 -0.07237428 -0.060149018 -0.021778192 -0.06223131 0.085918166 0.07188046
-0.03933297 0.02414464 -0.042204905 0.03006917 0.0056056287 -0.0515798 -0.089755565 -0.045434345
-0.055088528 -0.05798958 -0.08433703 -0.051885374 0.03804288 -0.0055676717 -0.008186788 0.082961485
-0.037190836 0.028009722 -0.016052546 -0.038712047 0.078562446 0.057910547 0.023916885 0.079540774
0.05117503 -0.05653936 0.0011894187 -0.050741207 0.05354627 -0.041245095 0.016391467 -0.04612833
-0.0054231207 -0.011629059 0.017332038 0.026997795 -0.033332024 0.06494503 -0.06065771 -0.028249161
-0.050764404 0.058442242 0.03795643 -0.0625259 -0.02219178 -0.0667751 -0.047481272 -0.05114366
0.022382554 -0.06556458 -0.03544401 -0.1166718 0.04495598 0.0062891487 -0.07275141 0.036236115
-0.10933062 -0.11392528 0.0089867 -0.044001114 -0.08735628 -0.021303833 0.01446893 -0.06868423
0.0115794195 0.031911768 -0.046795942 -0.07816626 -0.07507016 -0.009017685 0.02454121 -0.08547139
0.012189273 0.053175397 0.00810551 -0.03286385 -0.04915707 0.053362474 0.0065913107 -0.099781185
0.022889597 -0.09292797 0.06235783 0.072256334 0.039562717 0.04430752 -0.052207436 -0.056407448
-0.08137589 -0.10318954 0.014528805 -0.092543535 -0.072330244 -0.06998998 -0.059284545 -0.08962696
-0.06008605 0.050830383 -0.0716396 -0.07702847 -0.0059214965 0.05684209 0.033505708 -0.06537955
0.015886946 0.031758346 -0.019775989 -0.09038844 0.03660962 0.09119054 0.1432848 0.04786812
-0.11206054 -0.101702526 -0.09333917 -0.09740317 -0.064460814 -0.046573948 -0.11472959 0.08045639
0.031739686 0.03127399 0.011810944 0.071258165 0.08745893 -0.055889413 -0.027681226 -0.056942433
0.14904419 -0.009426376 0.018278036 0.04551326 0.0064313873 -0.09340829 0.018346442 0.023929661
0.0728944 -0.02356426 0.023962982 -0.027745176 -0.04552691 0.034277346 -0.10195729 -0.18998833
0.06426695 0.043071207 -0.016271912 -0.13554907 -0.026250334 -0.07182605 -0.14786771 -0.07589208
0.04326299 0.0020719697 0.03689168 0.108981 -0.06066644 0.054020032 0.06496888 0.05254576
0.07443764 0.049820207 0.058240175 0.036180172 0.09123646 -0.023499774 -0.01847239 -0.022336647
0.03711557 -0.069094986 0.0390612 0.095271625 0.10229153 -0.020599386 -0.013342074 0.023687057
0.03514949 0.0064580725 -0.026083065 0.062363043 -0.03899008 0.02825324 -0.0643739 -0.032469105
0.0578067 0.017493213 0.03777553 -0.0425237 0.110349566 0.025661327 0.04215302 0.08401998
-0.056137823 -0.057541493 0.023399081 0.06099293 0.07851515 0.01024327 0.12836674 0.13874058
-0.06046586 -0.07781621 0.013258069 -0.09480334 0.03796422 0.116830155 -0.018428411 0.1274369
0.00852206 -0.06425062 -0.023919774 0.0663605 0.06755213 0.0577041 0.019265963 0.085935675
-0.045504626 0.108261935 0.08928441 -0.04602852 0.07984512 0.015805291 0.01594196 -0.017637592
0.06289545 0.15370092 0.11086873 0.119344026 -0.019713808 0.024248026 0.009352109 0.12943636

conv.2.bias f4 [32]
00000000: 67ff cdbd aebc 863d 6ee8 5b3c 8d78 88bc
00000010: 63e8 e43d b5bb 0c3d 34c8 eabc 3a83 a43d
00000020: 1777 0a3e f5c7 573d f2a8 293b 9703 f0bb
00000030: a7e1 c13d 9fad 023d d148 803d 22b5 963d
00000040: 3073 8bbc 7a5a fa3c 702c d53d d4b2 db3b
00000050: 4231 85bb dfa5 49bd e8d5 1dbd 388f 5fbd
00000060: 3744 9a3d c5aa a7bb 9ec0 3d3d 771b 76bd
00000070: 7b84 123d c0f3 25bd 37e1 3e3d c12e f13c
-0.1005848 0.065789565 0.013422115 -0.016659046 0.11177137 0.0343587 -0.028659917 0.08032842
0.13521992 0.05268093 0.0025888053 -0.0073246467 0.09466868 0.03190386 0.062638886 0.07358767
-0.0170227 0.03056072 0.104088664 0.0067046676 -0.00406471 -0.049230453 -0.038534075 -0.054579943
0.07532542 -0.005116793 0.046326272 -0.060084786 0.035770874 -0.04051566 0.0466015 0.02944124

conv.4.weight f4 [32, 32, 4, 1]
00000000: 669c f7bd 5b29 1abd c607 babd 0e35 2abd
00000010: 70a3 753d fc9a 8f3c fdce cb3d ff04 f83d
00000020: 9af8 743a a124 aa3c 97a3 b43d 43b6 fb3d
00000030: 4d35 e03d 9aca d33d f83f cabc 300b 0f3c
00000040: dcbf 863d 1127 783b a4f7 ce3a fbda 353d
00000050: 7694 bf3d 4c6c d43d 3378 a53d dcff c439
00000060: 3042 9cbb 210c bc3d 4849 953d 17c1 483d
00000070: f824 a53d ade5 2a3d 450e 043e d46d 023e
00000080: 8381 293d c71d 493d dde5 a2bb cfd5 0e3e
00000090: 3ee1 1d3d cbcc de3d 08e0 d0bb f40b a53d
000000a0: c7cd 0bbd 6afa ac3d d6a4 d53c f7d1 a73d
000000b0: eb72 d13d 4910 16bc 8d93 67bc 5ad5 143e
000000c0: 70ce c73d 988e de3d c1d1 823b 9ce8 7d3d
000000d0: 1fe8 9a3d 6ca3 d53a e81a 073e 07d1 a93d
000000e0: 4339 b0bd 4b72 fcbb 6e29 3cbc 3820 21be
000000f0: f31c 6d3d e93c 2a3d 21aa 8d3d eb4d 243f
00000100: e8ef b73d 8831 0d3c d133 ce3d 94a5 c63c
00000110: 82bc ba3d ff8a e03c 2fea 16bc a2d6 e83d
00000120: 565b f43d b88c 683d 64b0 dd3c caad e23d
00000130: a3fd e13d aae2 863d 629e 7a3d 660b 833d
00000140: 7329 7a3c 9beb c13d ab0d f73d aca1 e83c
00000150: 9dc4 c6bc 34a5 373d a6aa 02be 27a1 e6bd
00000160: 3231 95bc 515a 053d c70c 8e3c bf2e 0e3d
00000170: fb0f 13bd 76dc 863d 4feb 1dbe ea0b 833b
00000180: e32b da3d e7ae c13d d9d1 e83c 6655 15bd
00000190: 6ba6 c63a 1035 f73d e5c3 35bd 8d10 373f
000001a0: a03d 3b3d cf1e 0a3d 0bc5 093e 64fb 0e3d
000001b0: 311d 32bd f328 473c 5ab8 4bbe be4f 013f
000001c0: 04b5 0ebe 3aa7 3bbc 172e 96bb ff68 963d
000001d0: b9aa c83d b5b7 c83d 3ce9 a73d 58f2 f03d
000001e0: b1a6 f23d 5261 753d 4482 cf3d db0c f83d
000001f0: a0a6 b83d 1287 9c3c cf46 ea3d 9380 013e
00000200: cdf0 a93d 8256 f93b f843 6d3b 754a 483d
00000210: 07f5 cb3b 364c 1bbc 1453 103d 6624 9c3d
00000220: 4541 9abc f2ed d5ba 719a 8d3d 757c 54bd
00000230: 808c 6dbd 26d4 07bd 24d6 20bd fd93 973c
00000240: 6611 ebbb 07bd bbbc 3291 a5bc 3454 73bd
00000250: 90bc 4f3c f0bf c2bd f7df 21bd a20b 963d
00000260: 9859 413b 01b7 82bd eddf aabd 6050 94bd
00000270: edc6 7d3c fe89 053d fb9a 8cbd 2134 f93c
00000280: 43a0 913d c1af 85bc bde2 d8bd 2463 b7bd
00000290: 3fc8 713c 0106 6f3c ae50 a8bd 1017 403d
000002a0: cd99 bfbd 4a83 cc3c 8a6d 0e3c ffa5 473d
000002b0: e996 c6bd 0044 cfbb 28ec 893d 3d81 64bc
000002c0: 8e2b 453d 4841 803d e43f a1bd 6b29 9e3d
000002d0: 07cc 483d 1176 21bd 0a84 7bbc 8a36 c7bd
000002e0: 301d 363d a882 80bd 690d 15bd e512 c63b
000002f0: 5ff9 fabc 599c 753c a75e 6c3d d242 fb3c
00000300: c18f 8bbd 40e6 9f3c aabc 653c 5e1c 5d3d
00000310: f8d8 96bc ffe8 07bd e666 99bd 40eb 1ebd
00000320: b1d7 663d fea5 883d a530 22bd c113 62bd
00000330: c31a d8bc be15 c2bd 3564 69bd 6f43 a63d
00000340: 8ed8 bcbd 02e7 12bc c01d a6bd 59b8 97bc
00000350: 2517 873d 3780 55bd 7f72 90bb f7ce 843d
00000360: cfe4 113d 930a be3d 8c70 373b dc18 e4bc
00000370: 21fc 823d 6bf9 edbd 29d9 9fbd ec4c 1c3d
00000380: 77fe 903c cda3 18bd 1f45 4bba e13f 993d
00000390: d9b1 72bd fe99 63bd 3052 b539 be20 b63c
000003a0: 9afd 88bc 1ab9 0abd ba61 56bc 2e6e d3bc
000003b0: add1 5bbc b8e2 c0bd 9e8f 54bd a8d3 193e
000003c0: fa16 2dbd 48b4 f2bd eb17 0fbd 7bb7 07bd
000003d0: c0d1 20bd 920f b0bd 637c 553d aa3b ae3d
000003e0: 471f b3bd bfcc d53b a627 cabb 851a 90bd
000003f0: b2d4 aabd 4cfa 8e3d d293 953d 4168 823d
-0.120903775 -0.037637096 -0.09083514 -0.041554503 0.05997032 0.017529957 0.09951589 0.12110328
0.0009344906 0.02076942 0.08820265 0.12290623 0.10947666 0.103413776 -0.024688706 0.008730695
0.06579563 0.0037865082 0.0015790355 0.04439829 0.093544886 0.103722185 0.08079567 0.00037574663
-0.0047686324 0.09182001 0.07289368 0.04901227 0.08063692 0.041722942 0.12896068 0.12737209
0.041383278 0.049100664 -0.0049712495 0.13948749 0.038544886 0.10878905 -0.006374363 0.080589205
-0.03413179 0.084462 0.026079576 0.081943445 0.10226997 -0.009159156 -0.0141343 0.14534512
0.09756172 0.10867041 0.00399229 0.06198941 0.07563805 0.0016299314 0.13193858 0.08291822
-0.08604672 -0.0077040545 -0.011484487 -0.15734947 0.057888936 0.041561995 0.06917215 0.64181393
0.08981305 0.008617766 0.10068477 0.024248876 0.09117986 0.027410029 -0.009211107 0.11369063
0.119314834 0.056774825 0.027061649 0.11068304 0.110347055 0.065862015 0.061186202 0.063986585
0.015268671 0.09468766 0.12063154 0.028397404 -0.024263674 0.044835284 -0.1276041 -0.11261206
-0.018211935 0.032556836 0.017340077 0.03471255 -0.035903912 0.06585018 -0.15421794 0.003999223
0.10652902 0.09457188 0.028420376 -0.036458395 0.0015155798 0.12070668 -0.044376273 0.7150963
0.045713067 0.033720788 0.13454072 0.034907714 -0.04348487 0.012155759 -0.19894543 0.505123
-0.1393624 -0.011453444 -0.004583131 0.07344245 0.09798188 0.09800664 0.08198783 0.117649734
0.118482 0.059907265 0.10132268 0.12111827 0.09016156 0.019107375 0.11439287 0.12646703
0.08297882 0.0076091895 0.0036203843 0.048899133 0.006224278 -0.009478619 0.03523548 0.0762413
-0.018829951 -0.0016321524 0.06914223 -0.051876504 -0.05799532 -0.033161305 -0.03926672 0.018503183
-0.007173705 -0.022917284 -0.020210836 -0.059406474 0.012679234 -0.095092654 -0.03952023 0.073264375
0.0029502865 -0.063825615 -0.08343492 -0.07241893 0.015489322 0.032602303 -0.06865498 0.030420365
0.071106456 -0.016319158 -0.10590122 -0.089544564 0.014757215 0.014588834 -0.082185134 0.046896994
-0.09355507 0.024964947 0.008693108 0.04874229 -0.096967526 -0.006325245 0.06734496 -0.013946828
0.04813724 0.062624514 -0.07873514 0.077227436 0.0490227 -0.039419238 -0.015351305 -0.097271994
0.04446143 -0.06274921 -0.036389742 0.006044733 -0.030636488 0.0149908895 0.057707455 0.03067151
-0.06814528 0.019518971 0.014022032 0.05398213 -0.018414006 -0.033181187 -0.074903294 -0.03879857
0.056358043 0.066722855 -0.039597172 -0.05519462 -0.026379948 -0.09476803 -0.05698033 0.08118331
-0.09220992 -0.008966209 -0.08111143 -0.018520521 0.06596211 -0.05212423 -0.0044081802 0.06484788
0.0356186 0.092793606 0.0027990667 -0.027843885 0.06395746 -0.11619838 -0.07805092 0.038159296
0.017699463 -0.037265588 -0.00077541353 0.07482887 -0.05925164 -0.05556678 0.00034584245 0.02223241
-0.01672249 -0.033867933 -0.013084823 -0.025809374 -0.01341669 -0.09418243 -0.051894777 0.15022147
-0.04225824 -0.11850792 -0.03493492 -0.033133965 -0.039262533 -0.0859672 0.052120578 0.08507474
-0.087462 0.006524652 -0.0061692772 -0.07036308 -0.0834135 0.06981334 0.07303585 0.06367541

conv.4.bias f4 [32]
00000000: cd0b 4c3d e416 4b3b 2ca9 463c 0cd1 603d
00000010: 0100 953d 7d90 a03c cc38 23bd 3a11 95bd
00000020: 058c 873d 0d6d d2bc 73e7 eb3c 5611 aebd
00000030: c9f8 8d3d 4e8a 783d eaf5 b53d 8dd1 8abd
00000040: 9f1e d13d e499 90bd acfb 353d 609d 963d
00000050: 8583 da3c 0769 893c b578 793b 0e26 89bc
00000060: 3b9a 963d 8fed ecbb f29f 07bd 2bdc 613d
00000070: 30a3 d8bc 8d18 753d dd24 893c bf63 5abd
0.04981594 0.0030988986 0.012125295 0.054886863 0.07275391 0.019600147 -0.039849088 -0.07278676
0.066185035 -0.025686765 0.028796887 -0.084994 0.06932218 0.060678773 0.08884795 -0.0677825
0.10210919 -0.07060602 0.044429466 0.07354236 0.026674042 0.016773714 0.0038066332 -0.016741779
0.07353636 -0.0072304676 -0.03311152 0.05514161 -0.026445001 0.059837867 0.01674121 -0.05331778

lstm.weight_ih_l0 f4 [256, 32]
00000000: 6c89 55bd f882 1cbd 80d3 d43a 8c70 923d
00000010: e09e 8abc b8d1 df3c 7022 633c 1a48 c2bd
00000020: 6027 f3bb f0a2 6ebc 9648 e73d 4e72 fe3d
00000030: f8dc 43bd cc56 bbbd d6f1 ff3d dcb1 b7bd
00000040: 3c90 a93d 6012 d8bd 0099 ea3a 7c30 c6bd
00000050: 8e2e ebbd 5882 f03d 987e a6bc 0869 533d
00000060: 6019 e7bd d676 efbd 5c2e 6dbd 58b3 b0bc
00000070: d2b1 983d 021c e0bd 30a1 47bc ea13 cfbd
00000080: 3092 cc3c e84f b63c 9073 5abc a099 4cbc
00000090: ea90 fcbd c06e e93d e01d 35bd 3c01 81bd
000000a0: 0011 e8bd 4e78 e2bd fc12 663d 386d 82bd
000000b0: 8465 3a3d c461 a43d 000b cf3a fc7c 81bd
000000c0: a0cc 47bd 8070 a33b 6031 f2bc f801 4f3d
000000d0: 7ae1 cf3d 6875 d3bc c44d fc3d d4f7 b13d
000000e0: 00c7 8e3c 6228 e03d 9833 c43c 8072 72bc
000000f0: 44cc bbbd c8fe c23d d806 80bc daf5 dfbd
00000100: a4b7 96bd 36a2 f2bd 127b f13d b0d6 d73c
00000110: 269b 9ebd 4ec8 cf3d 1afe 85bd 703a df3c
00000120: bc83 353d 0090 00b9 5004 703c 704d 46bc
00000130: 9cb0 c8bd 600e c5bb 003b adba f025 b03c
00000140: a200 f93d 981d e93d c068 cabb 5820 a7bd
00000150: 56cc 903d c61e d13d 7aa8 c4bd 920b 813d
00000160: 5831 6b3d 20be b5bb d0ca 693c 3804 443d
00000170: 2426 fe3d d46d d0bd 6ac8 e23d 4894 d53c
00000180: dc6b c7bd 72ce 973d 5ce5 d93d 26f8 95bd
00000190: 18ef 143d 7c58 e33d 8cf4 6abd cc5a 0bbd
000001a0: 2c8c 813d 2402 2ebd 8833 d73d 206b e73d
000001b0: 1c6f f7bd 4027 c2bd 24f3 92bd f0d9 e5bc
000001c0: 7099 0bbd 004f f4bd 64fb b83d 5a33 e9bd
000001d0: f00a fbbd 5026 463d 1cee 9cbd 0845 edbc
000001e0: 4ae3 b43d d224 80bd 706a 243d 3c48 733d
000001f0: c036 f13b 0a22 f33d f00e 20bd 8e35 9abd
00000200: 6085 febb 721f a53d a8e1 adbc 224b acbd
00000210: 7899 c1bd 7201 bf3d 0078 bcb8 d8f7 d73d
00000220: 4c01 f4bd c8c1 9bbc 4e07 94bd 7882 8c3c
00000230: c0b9 95bd bc76 d2bd 60a0 cdbb 2e9e c73d
00000240: 4c4c 463d 3810 cc3d ccf3 4fbd a0c7 1dbc
00000250: 68e2 68bd f2da fd3d 368e 8ebd 90e2 38bc
00000260: 0078 44bd c68c 993d 845b 28bd fc01 a5bd
00000270: 3494 86bd 4cde 1e3d 4c69 043d 1c81 d0bd
00000280: decc af3d 0625 b53d 5c7d 253d a849 ca3c
00000290: 7404 343d 30c4 95bc 0021 1fbd 7aa5 d3bd
000002a0: a099 113c 00a1 a6bc 0c07 0a3d 58cb 7fbd
000002b0: 001f e2ba 42d3 ca3d 6c85 333d 5820 a7bc
000002c0: 9089 363c f830 e63d ec16 82bd 1c6c a93d
000002d0: 40d5 34bd b43e 76bd 126b efbd a621 d73d
000002e0: ea90 b8bd 6c0e b13d 5c6a d73d 80fc e8bd
000002f0: 606b eebd f8fd 00bd b8e5 e8bc e030 a8bd
00000300: f23e efbd 60f2 363d b051 8c3c a037 b2bd
00000310: 18fc a7bd 8667 aebd 9847 873d e4ea 1fbd
00000320: f26d c93d ea16 923d e076 cdbd 7052 86bd
00000330: cc73 2bbd ec82 07bd ccf2 5fbd 78bb 8dbc
00000340: 8035 e03b ae44 eebd e482 06bd 1a8c d63d
00000350: d0de 12bc 38ff 7f3d bc27 efbd 04f3 35bd
00000360: 3464 35bd 1044 42bd 485c 203d c0d5 0e3b
00000370: 1a5a 9d3d 1085 683d 3222 bc3d 9c22 cabd
00000380: d0f2 d03d 885f 583d 2057 97bc aaff c3bd
00000390: fca9 733d e0a5 44bd 8034 e83a 126b c7bd
000003a0: 16e1 b7bd 30ae c53d e87e c93d aef4 90bd
000003b0: d21c b6bd 9af9 f2bd 40bb 973b 804b 97bb
000003c0: 2464 f13d 5060 bfbc 1e3c 85bd 580a 103d
000003d0: c80d ed3d 70b7 90bd 9082 3e3c 08bf 12bd
000003e0: d07b 5bbd b8cb 3c3d 4059 5cbc 5400 3fbd
000003f0: f0a6 153d e83a 7e3d c0f0 933c de9a a6bd
-0.05213301 -0.03821084 0.0016237348 0.07150373 -0.01692146 0.027321681 0.013863191 -0.094864085
-0.0074204654 -0.0145652145 0.112931415 0.12424146 -0.047818154 -0.091474146 0.124972984 -0.08969471
0.08279464 -0.1055038 0.0017898381 -0.096772164 -0.11483489 0.11743611 -0.020324036 0.051613837
-0.11284137 -0.11692588 -0.05790554 -0.021569893 0.074557915 -0.10942842 -0.012184426 -0.1011122
0.024972051 0.0222549 -0.013333216 -0.012487799 -0.12332328 0.11398077 -0.044217944 -0.062990636
-0.113313675 -0.110581025 0.05617045 -0.06368488 0.04550697 0.0802646 0.0015796125 -0.06322667
-0.04877913 0.0049877763 -0.02956456 0.050538987 0.10150428 -0.02581282 0.1231952 0.086898476
0.017428875 0.109452024 0.023950383 -0.014797807 -0.0916982 0.09521252 -0.015628263 -0.10935564
-0.073592454 -0.118473455 0.11791052 0.026347488 -0.07744436 0.10145627 -0.06542607 0.027249545
0.044315085 -0.00012260675 0.014649466 -0.0121034235 -0.097993106 -0.0060136765 -0.0013216436 0.021502465
0.12158324 0.11382598 -0.006177038 -0.08160466 0.07070224 0.10210948 -0.09602447 0.06301035
0.057420105 -0.0055463463 0.014269546 0.047855586 0.124096185 -0.10177198 0.11073382 0.026071683
-0.097373694 0.07412423 0.1063945 -0.07322721 0.03636083 0.111008614 -0.057362124 -0.034022138
0.06325564 -0.04248251 0.10507876 0.11299729 -0.12081739 -0.094801426 -0.07175282 -0.028058022
-0.034081876 -0.119291306 0.09032324 -0.11386748 -0.122579455 0.04837638 -0.07662603 -0.02896358
0.088324144 -0.06257023 0.04014057 0.05939506 0.007361263 0.11871727 -0.039076746 -0.07529746
-0.0077673644 0.08062638 -0.021225765 -0.08412768 -0.094531 0.093264475 -8.98689e-05 0.10545319
-0.1191431 -0.0190133 -0.07227956 0.017152056 -0.073108196 -0.10276553 -0.0062752217 0.09746967
0.048412606 0.09964031 -0.050769612 -0.009630114 -0.056856543 0.12395276 -0.06960718 -0.011284485
-0.047966003 0.074975535 -0.0411029 -0.08057019 -0.06571236 0.038786218 0.03232698 -0.10180876
0.08583997 0.08844952 0.040402755 0.024693325 0.04394956 -0.018282026 -0.03884983 -0.103342965
0.008886725 -0.020340443 0.033698127 -0.062449783 -0.001725167 0.099035755 0.043828413 -0.020401165
0.011141196 0.11239809 -0.06352028 0.08272573 -0.044148684 -0.060118392 -0.11690344 0.10504465
-0.09012015 0.08645329 0.10518333 -0.113762856 -0.11641574 -0.031492203 -0.028429851 -0.08212447
-0.11681928 0.04466474 0.017128795 -0.08702016 -0.0820238 -0.08515839 0.06605452 -0.03904237
0.098354235 0.07133277 -0.10032439 -0.065586925 -0.04185848 -0.03308384 -0.05467491 -0.017301306
0.006842315 -0.11634193 -0.03283967 0.10475941 -0.008964255 0.062499255 -0.116775006 -0.04442121
-0.044285014 -0.04742819 0.039150506 0.0021794885 0.07683201 0.056767523 0.0918621 -0.098698825
0.10202563 0.05282548 -0.018474162 -0.095702484 0.05948828 -0.048009753 0.0017715842 -0.09737219
-0.089784786 0.09652364 0.098386586 -0.07077919 -0.08892216 -0.11864014 0.0046304762 -0.0046171546
0.117866784 -0.023361355 -0.06505607 0.035166115 0.11574894 -0.07066238 0.011627808 -0.035826713
-0.053584874 0.04609272 -0.013449013 -0.046631172 0.036536157 0.062067896 0.018059134 -0.08135007

lstm.weight_hh_l0 f4 [256, 64]
00000000: 9012 953d 80e4 6b3c 5859 4e3d 34a2 553d
00000010: 28f3 9cbd f004 6ebd 58a2 bfbc 2c6c 163d
00000020: 6431 e33d 803c 6ebd 24ed 003d fe8c b13d
00000030: f847 ccbd 2859 f83d 127f f5bd a84b 213d
00000040: 9e9b eabd b417 e03d 22e2 923d 945e 5a3d
00000050: 22c4 aa3d 90ca 413c 40d4 fcbc c8b3 9b3d
00000060: 90ce ee3d 8a03 83bd e016 3f3d 70ae 7ebc
00000070: c6ec ebbd ca76 c0bd 4c60 dfbd d084 253c
00000080: 00e4 f039 7a01 933d cc3b 373d 0cb8 8cbd
00000090: 3003 aebc d01c 7e3d 006d d33c 9af2 ff3d
000000a0: 60fd 373c fea6 b0bd ac55 5d3d b4b6 563d
000000b0: f03d b7bc a8d1 36bd bc5a dd3d 5017 353c
000000c0: a88a 26bd f66d cc3d 80f7 8ebb 124d ab3d
000000d0: ec4b 16bd 0098 9abb 742f b33d 8454 2fbd
000000e0: 4836 16bd 8c4e b23d 34ba b1bd b8df 113d
000000f0: 84dd b53d d090 4c3c 685f b33d 689f 1f3d
00000100: 7066 8b3d 005e 813b 08de e1bd 7875 73bd
00000110: d80a 193d 76ac 84bd ea0d f83d d801 f63c
00000120: acab f7bd d07e 14bc eeb6 833d d232 afbd
00000130: 8090 213b 1c38 55bd d882 11bd 22b8 9d3d
00000140: f8c3 8abc 1849 babd 0076 c83b 005f c63b
00000150: c820 5c3d 1420 a73d e828 36bd 3432 273d
00000160: 007c d3b9 0658 b2bd f8d4 fe3d 6ce5 bdbd
00000170: 26a0 d73d f068 033d 78e7 d5bd ec22 5c3d
00000180: 94ce 43bd cc6f c5bd ec56 a03d dcfc e1bd
00000190: acf2 e63d 5e2b a03d 6aa8 80bd 5680 c7bd
000001a0: 2054 c2bd a6e9 f4bd 0046 cf3d de1b b23d
000001b0: be2e dfbd 406a febc 40d4 51bc bc57 843d
000001c0: a479 e13d b6e5 ab3d b860 b3bd e0a6 af3d
000001d0: 5497 ef3d 605f cbbd 60ca 5abd e054 ed3d
000001e0: 38d1 92bc 30dd a83c e4c3 dc3d b433 bf3d
000001f0: ba54 e83d 5850 b83c aa6f 8abd a089 41bd
00000200: e45f 683d cc83 97bd 347d 7b3d 1080 8b3c
00000210: cc55 2e3d 70a0 e0bd c07f 38bd 0a14 82bd
00000220: c07f f73c 3613 efbd 5884 14bd d6b1 94bd
00000230: 1e17 b9bd a6ba d8bd 88ae 47bd 7cc7 433d
00000240: f8af 7f3d f825 a03c fc72 42bd a0dc 9cbb
00000250: 38f1 64bd e660 a33d 4e0b f4bd aaeb dabd
00000260: 48b3 3a3d f07b d73d 72f7 cf3d 90f7 1d3c
00000270: be7a 893d 401c 16bc 90db e5bc 1a88 933d
00000280: 38f3 1dbd 804e dabc ea6b fcbd b8a1 f6bd
00000290: 2411 73bd 6c0c d4bd 8859 523d 90c0 febd
000002a0: d41b 1b3d d001 8c3d 3259 ff3d 8295 de3d
000002b0: 0846 63bd 505f a43c bcb2 e1bd e019 3d3c
000002c0: ae8c f4bd 162b b63d 5657 833d 80d4 46bc
000002d0: c07b 063b c8cc e03d 04cc 973d 264f f0bd
000002e0: 7629 d33d a021 e2bc 34a3 f6bd aace eebd
000002f0: f8de 9c3c 90d9 893d 847b 4c3d 26d2 e93d
00000300: f010 513c 2ece a33d 1c9c 103d 1045 843d
00000310: 5877 bebd 46c9 b93d 0884 013d d45b 1dbd
00000320: ac51 f73d a663 aa3d 067e edbd 509e 5dbc
00000330: 2089 5ebd 3846 32bd 52b3 b8bd 907e 29bc
00000340: c005 273c 8810 2fbd 64fb 2cbd c24e e93d
00000350: 6053 2cbc b0eb 6bbd 7c01 5a3d 0053 29bc
00000360: b4a1 903d 061a a8bd 56c0 d5bd c4e8 81bd
00000370: 8a7b f53d 220e f33d 36fa c73d 6ca2 d4bd
00000380: 2c8e 48bd 2886 e8bd 64fb e2bd b018 b9bd
00000390: c837 a83c 480f 0f3d e0a5 6c3c ec2a fdbd
000003a0: 6ce3 02bd 248c 823d 4cb7 3cbd 8e59 ff3d
000003b0: 3078 873d 7eb8 aebd 60e6 15bd 7c24 35bd
000003c0: cce9 e23d 86be 91bd 7af7 ccbd 6a59 a23d
000003d0: f4ea 323d b416 2dbd 503d 7fbc 2866 aa3d
000003e0: 40bc 78bc cc8e aabd 98ed 153d 144e cdbd
000003f0: 1061 1cbd 4065 bfbd 406f 413d 403d 223d
0.07278931 0.01439774 0.050378174 0.052156642 -0.07663566 -0.058110178 -0.023392841 0.036724254
0.11093405 -0.058163166 0.031476155 0.0866947 -0.099746644 0.1212638 -0.11987127 0.039378792
-0.11455463 0.10942021 0.07172038 0.053312853 0.083381906 0.01182808 -0.030862927 0.0760265
0.116604924 -0.063971594 0.046652675 -0.015544519 -0.1151977 -0.09397657 -0.10907039 0.010102466
0.0004594624 0.07178016 0.04473476 -0.06871042 -0.021241754 0.062039196 0.025808811 0.124974445
0.011229843 -0.08625601 0.05403678 0.052420333 -0.022368401 -0.044633538 0.10808322 0.011052921
-0.040659577 0.09981911 -0.0043630004 0.08364309 -0.0366935 -0.004717827 0.08749285 -0.04280521
-0.03667286 0.08706388 -0.086780936 0.035613745 0.088801414 0.012485698 0.08758432 0.03897038
0.06806648 0.0039479733 -0.11028677 -0.0594382 0.037363857 -0.06478207 0.12112029 0.030030176
-0.12093291 -0.009063438 0.064313754 -0.08554615 0.002465278 -0.052055463 -0.035525173 0.07701136
-0.016939148 -0.09095973 0.0061175823 0.0060538054 0.0537422 0.08160415 -0.044472605 0.04081936
-0.00040337443 -0.087081954 0.12442964 -0.092722744 0.10528593 0.032082498 -0.1044454 0.05374424
-0.04780443 -0.09640464 0.07829079 -0.11034557 0.11276755 0.07820772 -0.062821224 -0.09741275
-0.09488702 -0.119586274 0.10120773 0.086967215 -0.10897587 -0.031056523 -0.012806952 0.064620465
0.11009529 0.08393423 -0.08758682 0.08576751 0.116987854 -0.09930301 -0.053415656 0.11588454
-0.017922029 0.020613283 0.10779551 0.093360335 0.11344285 0.022499248 -0.067595795 -0.04725039
0.056732073 -0.07398185 0.0613987 0.017028838 0.04256229 -0.10968101 -0.045043707 -0.063514784
0.030212283 -0.11673586 -0.036259025 -0.07260482 -0.090376124 -0.10582475 -0.04875043 0.047797665
0.062423676 0.019549355 -0.04747294 -0.0047870427 -0.055894107 0.07977466 -0.11916219 -0.106894806
0.045581132 0.10521686 0.10154618 0.009641543 0.06712864 -0.009162009 -0.028058797 0.07203694
-0.03856203 -0.02664876 -0.123252705 -0.12042564 -0.05934252 -0.10353932 0.051354915 -0.12439072
0.037868336 0.06836283 0.124681845 0.1086836 -0.05548671 0.02006498 -0.11020419 0.011541814
-0.11940895 0.08894937 0.064131424 -0.012135625 0.0020520538 0.10976559 0.0741196 -0.11733846
0.103106424 -0.027603924 -0.12042847 -0.11660512 0.019149289 0.0673095 0.04992248 0.11417036
0.012760386 0.0799831 0.035305128 0.06458485 -0.09300107 0.09071593 0.031620055 -0.038417652
0.120761245 0.08319788 -0.11596303 -0.013526514 -0.05432999 -0.043523997 -0.09018578 -0.010345116
0.010194242 -0.042740375 -0.042231932 0.11391975 -0.010517925 -0.057597816 0.05322407 -0.01033473
0.070620924 -0.082080886 -0.10437076 -0.06343225 0.11986454 0.1186793 0.09764521 -0.10382542
-0.04896371 -0.11353713 -0.11083105 -0.09037912 0.020534411 0.034926683 0.014443845 -0.12361702
-0.031955168 0.06374386 -0.046073243 0.12468253 0.06614721 -0.08531283 -0.036596656 -0.044224247
0.110797495 -0.071164176 -0.1000814 0.07927211 0.0436811 -0.04225798 -0.015578583 0.08320266
-0.015181601 -0.083280176 0.03660354 -0.10024658 -0.038178504 -0.09345484 0.047225237 0.039609194

lstm.bias_ih_l0 f4 [256]
00000000: 80ab acbc 0e8f 833d 8029 783b faf6 8f3d
00000010: 6a6b ec3d a24f 943d 761e f53d fa10 9bbd
00000020: 9c8d 87bd 3451 eabd 1edd b93d ace3 993d
00000030: feb7 e8bd 804a 2abc 5414 c23d 2241 dfbd
00000040: 9c63 e3bd e60b e7bd f61b f6bd 004a 1cbc
00000050: 8695 aabd 4e8e f43d 3eb0 a03d 90ec afbc
00000060: 905a 81bc 0453 e8bd 9a38 80bd 3c5a afbd
00000070: c092 b5bc c0c0 7cbc 0880 86bd 00f2 30bd
00000080: ec7d 483d be32 96bd d8c3 b3bd 36d9 fc3d
00000090: 0030 ce3d b070 043c 3c95 cc3d b8dd 95bd
000000a0: a0fd 423c e009 ef3b 28fb aebd 68bf 62bd
000000b0: 4c42 3e3d f843 e23c 30a0 d33c e0de 5e3c
000000c0: a25a abbd 3a86 973d 4cbf 80bd ac90 d4bd
000000d0: 70c1 173c 0278 b5bd a03e 7fbd 80b1 ea3d
000000e0: 08d1 373d 806d b9bb e027 d5bb e029 1f3c
000000f0: e4c4 463d 5a0a 94bd 5c7b f7bd 08fa f0bd
00000100: f4c8 d63d 26b6 8a3d 68d0 61bd 8cbd 7e3d
00000110: 2020 f2bb 008e 753c 16cf d73d 7c64 473d
00000120: 4063 ee3d 40cc a13c 68a7 c9bd 700a c4bc
00000130: f43d 55bd 30d1 093d 7e0b da3d 480f 973c
00000140: 0ee7 973d c010 d3bb 006f d1bc 0cab 9e3d
00000150: cab1 95bd e21d 923d 5ca0 d4bd c6fe da3d
00000160: e085 2c3d a459 563d d0ac 493d bead 933d
00000170: a0d5 d4bd f48a 3a3d 2c3a e2bd 106c 7cbd
00000180: 2030 b0bd 3048 ca3d 5a6f a43d 5a9e fe3d
00000190: d0b9 0dbc a819 963c de45 993d 1038 753c
000001a0: d010 433c a0e3 2d3d 36d4 b3bd 640f eabd
000001b0: 90af a63c 24a3 003d 2498 023d a0b4 ffbb
000001c0: 2c3d 6e3d 5043 7bbc 4edd d7bd 44bf b23d
000001d0: a8dd e5bc 3677 f1bd 00ac c9bd d078 55bd
000001e0: 3455 b9bd 60ca 343d 6466 14bd 4a77 f43d
000001f0: b49c 34bd ba0c 83bd b4c7 dbbd 0826 443d
00000200: 28ea 41bd 207c c43d e463 c3bd f070 923d
00000210: a6f7 c7bd f86d ad3c b050 dabc e866 9fbc
00000220: 68d1 53bd 50dc b6bd 304e 7c3c 565d 843d
00000230: 9869 063d a068 1f3d 22e6 b8bd ec45 47bd
00000240: 481b 603d c031 333d d892 b53d 00cd bb3c
00000250: 9c05 30bd be03 913d 909c 093d 58be 9bbc
00000260: ba7b 913d d4c2 603d ee7e f83d 7c45 68bd
00000270: d8d4 0e3d fcff 11bd 680d f83d cac8 a33d
00000280: 6c11 b33d 1834 0abd f081 3bbc 4cab 37bd
00000290: 7278 96bd 3a30 febd 8068 a33a 7291 cabd
000002a0: 4aaf a4bd ae9a a13d ea03 a23d c2b4 fbbd
000002b0: 90b2 613d 3057 fbbd 0059 55ba 58eb d3bc
000002c0: 4e64 9e3d 8810 6f3d b4df b9bd 24a0 32bd
000002d0: 5e78 d1bd 20cc 8a3b 00c2 1dbb 80b2 083d
000002e0: 8081 d1bc 60b6 a13d c448 683d 3285 c3bd
000002f0: 2455 28bd 648d cd3d f6c2 f7bd 08e2 f4bc
00000300: 3e32 ebbd 362f c6bd 2c2a 80bd da49 923d
00000310: 6cfb 1b3d bec2 9ebd 7e00 833d 20ce b03d
00000320: 74b8 373d 4c2b 943d 86c0 c63d e8f0 90bd
00000330: 28b8 3d3d ecd5 50bd c0ec 8fbc 0aea 90bd
00000340: e05d cc3c 3ef3 b1bd 8614 ba3d cacd f9bd
00000350: e042 86bd 40d8 9f3b f8a2 c53d c0e6 abbd
00000360: 9a95 e7bd 306d e7bd 0041 a9bc 1aa0 c23d
00000370: 0e59 88bd 785e a8bd 1006 cebc 3a43 e73d
00000380: 0c56 a83d a273 ebbd b84d 8ebd 00ed 39bd
00000390: 70fd 9abd c2c3 fcbd 688e 3fbd 2c67 e4bd
000003a0: 78b4 3ebd ce27 a8bd a64c d0bd b81d 343d
000003b0: c006 01bb defc ee3d e667 a5bd acbb 3a3d
000003c0: 74c7 b53d 4612 9cbd ee43 86bd c0d5 d93c
000003d0: 9056 43bc d04f 5dbd 80eb d53d c031 aebd
000003e0: 4420 aa3d 805c 71bc 7006 913c a073 e23b
000003f0: 000a ce39 f0a7 773d 383e ac3d 9ed1 b4bd
-0.021077871 0.0642377 0.0037866533 0.07029529 0.11543925 0.07241751 0.119687006 -0.075715974
-0.06618807 -0.114412695 0.09075378 0.07514128 -0.11363219 -0.010393739 0.094765335 -0.10901095
-0.11102983 -0.11281566 -0.12017052 -0.009539127 -0.083293006 0.11941205 0.078461155 -0.021475106
-0.015790254 -0.11343959 -0.06260796 -0.08562133 -0.022164702 -0.015426815 -0.06567389 -0.04319954
0.048948213 -0.07333897 -0.087775886 0.12346117 0.10067749 0.008083507 0.09989402 -0.0731768
0.011901289 0.0072948784 -0.08543998 -0.05535832 0.046449944 0.0276203 0.02583322 0.013602942
-0.08366896 0.073986486 -0.06286487 -0.103791565 0.009262428 -0.0886078 -0.062315583 0.11459637
0.044877082 -0.0056588054 -0.0065049976 0.009714574 0.048527613 -0.07228537 -0.12084076 -0.1176644
0.104875475 0.06773023 -0.055130392 0.062192485 -0.0073890835 0.014987469 0.105375454 0.048679814
0.11640024 0.019750714 -0.09846383 -0.023930758 -0.052061036 0.033646762 0.10646723 0.018439904
0.07417117 -0.0064412057 -0.025565624 0.07747468 -0.07309301 0.07134606 -0.103821486 0.106931254
0.04211986 0.05233158 0.049237072 0.07210873 -0.10392308 0.045542672 -0.11046252 -0.061626494
-0.08602929 0.0987705 0.08029051 0.12432547 -0.008650258 0.01832278 0.07484029 0.01496698
0.011905864 0.04245341 -0.087807104 -0.11428717 0.020347387 0.031405583 0.031883374 -0.0078035146
0.058163807 -0.015335873 -0.105402574 0.08727887 -0.028059795 -0.11790316 -0.098472595 -0.05211717
-0.09049454 0.044138312 -0.03623046 0.11936815 -0.044094756 -0.06398912 -0.1073145 0.047887832
-0.04734245 0.095939875 -0.09540537 0.07150447 -0.09764032 0.021170601 -0.026649803 -0.01945825
-0.051713377 -0.0892874 0.015399501 0.06463115 0.032815546 0.038918138 -0.09028269 -0.048650667
0.054713517 0.043748617 0.08865899 0.0229249 -0.0429741 0.07080792 0.033596575 -0.019011661
0.07103677 0.054873303 0.12133585 -0.05670689 0.034870952 -0.035644516 0.12111932 0.07997282
0.08743557 -0.033741087 -0.011444554 -0.044841096 -0.07347192 -0.12411542 0.0012467057 -0.09891023
-0.08041246 0.07890831 0.07910903 -0.12290336 0.05510193 -0.12272489 -0.0008138567 -0.025869057
0.07733975 0.058365375 -0.09075871 -0.043609753 -0.10228036 0.0042357594 -0.0024071932 0.033373356
-0.025574446 0.078961134 0.05671002 -0.09546889 -0.04109682 0.10036734 -0.12097733 -0.029892936
-0.11484192 -0.096769735 -0.06258044 0.07142992 0.03808157 -0.07751988 0.06396578 0.08633065
0.044853643 0.07234821 0.0970469 -0.07077199 0.046318203 -0.05098526 -0.017568946 -0.070758894
0.024947107 -0.08688973 0.09085946 -0.12197454 -0.06555724 0.004878074 0.096502244 -0.083936214
-0.11307831 -0.11300123 -0.020660877 0.09503193 -0.06657611 -0.082211435 -0.025149375 0.11292119
0.08219537 -0.114966646 -0.069484174 -0.045392036 -0.075678706 -0.12342025 -0.04676667 -0.11152491
-0.046558827 -0.08210717 -0.101708695 0.043973655 -0.0019687861 0.11669324 -0.08076458 0.045589134
0.08875933 -0.07620673 -0.06555925 0.026591182 -0.011922494 -0.054031193 0.10445309 -0.08505583
0.083069354 -0.014731526 0.017703265 0.006910756 0.00039298832 0.060462892 0.08410305 -0.08829044

lstm.bias_hh_l0 f4 [256]
00000000: ae0b c0bd 46a6 b4bd 20c0 debd 7435 74bd
00000010: 4045 e53d 587c 32bd 980c c3bd 6833 03bd
00000020: b0ba febc a0cc b73c 9027 fb3c 2a9a b4bd
00000030: 80e3 753c e008 ae3b 00d0 2438 60de afbb
00000040: 685e c3bc 2077 783d 845f b43d 5acf f13d
00000050: faa1 b9bd e416 643d ee6d 893d 9ee4 81bd
00000060: 7226 ccbd 5a1d fc3d 824a c83d 2c9d b7bd
00000070: 8083 b2bb 00a4 03bc 70a2 69bc 448d db3d
00000080: 1c14 5fbd 120d ebbd c89c f8bc 4040 df3b
00000090: ec71 f7bd c82c 04bd 6856 83bc f48b fdbd
000000a0: 285b bb3d 2e7e cabd 947d e4bd f0fe 18bd
000000b0: 2060 f4bc 0c6e 583d 88a0 cc3d e6cd bd3d
000000c0: 20d0 c43d bc77 0f3d e408 c43d 7485 9f3d
000000d0: a070 4b3c 184b 7e3d 848a debd 409b 6ebb
000000e0: 2090 53bc 8c89 27bd 904e c9bd a016 af3c
000000f0: dc96 8abd 7830 953d bc8c 1a3d 0018 673d
00000100: bea2 d33d c80b e13d 9810 b13d c0f3 d13d
00000110: da40 9fbd a68b a9bd 78d9 3a3d b036 c6bd
00000120: 4cab 20bd 008a c3bc 18a7 c1bd d4e5 88bd
00000130: 10dc 8d3d da28 923d 5054 843c 2c6d c9bd
00000140: 1228 af3d 9e72 9b3d 0cec d6bd eacc ce3d
00000150: b09e cd3c e41e 773d 762b dc3d 682d 4ebd
00000160: 9055 61bc 241d b2bd a83d d0bc c431 d23d
00000170: b098 bd3d e8d2 acbd 3cd0 eabd f8f7 3cbd
00000180: c8c4 e2bc 1896 d1bc 0089 bebc a099 53bd
00000190: b201 ad3d 700b f63c 0e9c 8bbd 38dd e83d
000001a0: cc77 5f3d f208 f2bd 7e47 febd 44f4 433d
000001b0: 74cd 51bd ec5d 3cbd 7414 8f3d 1a97 e4bd
000001c0: 60f9 923b 9469 f1bd 84d0 643d 7008 12bd
000001d0: d48f 7c3d c02c af3d a45a 04bd 0498 da3d
000001e0: 003c 8a39 8cd7 3e3d c04f 10bb 4c71 0e3d
000001f0: 1e3e b2bd 8e5b bfbd 6cd5 37bd 6e96 a2bd
00000200: 80b5 853a 40ab e1bd ec2b 4c3d 6237 bbbd
00000210: c015 c13c 608f 32bd f814 743d 347b 703d
00000220: e03f 333c 9460 613d 68fb e33c b46b 5dbd
00000230: e0d5 c5bb 0448 0b3d 9aa6 bc3d 0c6a 7c3d
00000240: 80f0 5bbc ec65 07bd 6ac2 c3bd 8837 b73d
00000250: 543f e3bd 9a0c e53d 440a 883d c042 8dbd
00000260: 202b 40bd 80c9 16bd 085c 9c3d 408a ad3b
00000270: 50b9 a8bc d069 d43c 5ae3 af3d bad5 b03d
00000280: d07e 05bc 204b 963d 8aee bcbd a88c a13d
00000290: 38b6 b6bd 583e 493d 124c 923d 304d 33bc
000002a0: 527c 9c3d dc35 88bd cc7a cabd b8ae 56bd
000002b0: f8d9 f9bc 084a b83d 388c a1bd c090 2dbb
000002c0: 0002 ba3d f87f efbc 3059 33bc ea4f bd3d
000002d0: 4841 c03c a023 34bd 8c26 c93d e84b adbd
000002e0: 3a80 b8bd 0033 933a ea7f c93d 1450 033d
000002f0: 1cd5 073d 10ff f13d 6827 62bd e0fb 953d
00000300: 6e8b ba3d 60c6 cbbb cc0f c7bd 00cf 8e3d
00000310: 38ae eebc 6027 4e3d 3ca5 9bbd 34eb 9e3d
00000320: 3aa7 8abd 48af 583d b8a6 f5bc 32fc c9bd
00000330: 08d3 ea3d ec1c 1bbd 5aa8 8a3d 325b b5bd
00000340: 6440 3c3d 6488 82bd e07e a83b 9a37 bd3d
00000350: d8bc 90bd 68a7 583d 402f 26bd f4d7 f6bd
00000360: 7e64 90bd e44e 083d c8e4 f5bc 1051 7bbd
00000370: 1675 ca3d f472 ad3d f2e4 fdbd d828 a9bd
00000380: ee6c f1bd 64cb 133d 9678 813d e297 db3d
00000390: c0bf b5bc 12ca b1bd 6c97 8fbd 90b0 50bc
000003a0: a0a0 e73c 00c3 a13d 8209 a3bd 9002 783c
000003b0: bca4 4ebd e646 e2bd e04f a0bd 807e d63c
000003c0: ec95 9dbd 027c b3bd 2496 573d 082f db3d
000003d0: b815 bbbc 36b7 d63d c8a4 ccbd 1033 fbbd
000003e0: 8097 d2bc 3cb7 793d c8d2 d1bc 8036 963d
000003f0: 00ed 1b3a 12de 81bd 90b2 503c 80e0 22bd
-0.09377228 -0.08820777 -0.10876489 -0.05962129 0.11194849 -0.043575615 -0.095238864 -0.032031447
-0.031094879 0.02243644 0.030658513 -0.08818467 0.0150078535 0.0053111166 3.9294362e-05 -0.0053670853
-0.023848727 0.06066048 0.08807281 0.11807127 -0.09064098 0.055685893 0.067104205 -0.063424334
-0.0996827 0.12310286 0.09779836 -0.08965525 -0.005447805 -0.008034706 -0.0142599195 0.10720304
-0.054462537 -0.11477102 -0.030348197 0.006813079 -0.12082276 -0.03226927 -0.016032413 -0.123802096
0.09148246 -0.09887348 -0.111567646 -0.037352502 -0.029830992 0.052839324 0.099915564 0.09267788
0.09610009 0.035026297 0.09572008 0.07789126 0.012416989 0.062083334 -0.108662635 -0.0036408454
-0.01291278 -0.04090266 -0.09829438 0.021373093 -0.067670554 0.07284635 0.03773187 0.056419373
0.10333775 0.10988575 0.08645743 0.1025157 -0.07776041 -0.08278589 0.04561755 -0.096783996
-0.03922586 -0.023869514 -0.09455699 -0.06684461 0.06926739 0.07136698 0.016153485 -0.09835276
0.08552565 0.07590221 -0.10494241 0.10097678 0.025100082 0.060332194 0.10750477 -0.05033627
-0.01375331 -0.086969644 -0.025420025 0.10263398 0.092576385 -0.08438665 -0.11465499 -0.04613492
-0.027681723 -0.025584266 -0.023258686 -0.05166018 0.08447589 0.03003475 -0.068168744 0.11370319
0.054557607 -0.118181124 -0.1241598 0.04784037 -0.051221326 -0.04598801 0.06986323 -0.11161633
0.004485294 -0.117877156 0.05586292 -0.035652578 0.061660603 0.08553457 -0.032313004 0.10673526
0.00026366115 0.04659228 -0.002202019 0.034776017 -0.08703254 -0.093436345 -0.04488127 -0.079388484
0.0010201186 -0.110189915 0.049846575 -0.09141423 0.023569942 -0.043593764 0.05959031 0.058711246
0.010940522 0.055023745 0.02782984 -0.05405779 -0.006037459 0.034004226 0.09211464 0.06162457
-0.013424039 -0.033056185 -0.09558566 0.089461386 -0.11096063 0.11184044 0.06642583 -0.06897497
-0.046916127 -0.03681326 0.07634741 0.0052960217 -0.020596176 0.025929362 0.08588286 0.08634515
-0.00814791 0.07338548 -0.09225185 0.07888156 -0.08921474 0.04913172 0.071434155 -0.010943696
0.076409 -0.06650898 -0.09886703 -0.05241272 -0.030499443 0.08998495 -0.07888073 -0.0026483983
0.09082413 -0.029235825 -0.010946557 0.09243758 0.023468629 -0.043979287 0.09821805 -0.084617436
-0.09008832 0.0011230409 0.09838851 0.03205879 0.03316222 0.118162274 -0.055213362 0.07323432
0.09108625 -0.0062187165 -0.0971981 0.06973076 -0.029135808 0.05033052 -0.07599875 0.07759705
-0.06770177 0.052901536 -0.029986724 -0.098625556 0.11466032 -0.03786938 0.06770392 -0.08855285
0.045959845 -0.06373671 0.005142078 0.09239121 -0.07067269 0.052894026 -0.040572405 -0.120529085
-0.07050417 0.03327836 -0.030016318 -0.061356604 0.098856136 0.08469191 -0.123971835 -0.082597435
-0.11788355 0.03608264 0.06321828 0.10722329 -0.02218616 -0.0868112 -0.07011303 -0.012737408
0.028274834 0.078985214 -0.07960798 0.01513733 -0.05045007 -0.11048679 -0.07827735 0.026183367
-0.07694611 -0.08763887 0.05263342 0.1070233 -0.022837505 0.104841635 -0.09992367 -0.12265599
-0.025707006 0.06096576 -0.025613204 0.07334614 0.00059480965 -0.06341185 0.012737885 -0.03976488

fc.weight f4 [3, 64]
00000000: c92d f43d 049c a63c 4bbf 0a3e b55d efbd
00000010: 5e9c f03c 41b3 2cba a829 2d3f ed8d 673d
00000020: f3fa e3bd 6493 ed3c 4a96 6f3d 06eb 51bd
00000030: febb 8b3d ce10 d63d 9b42 d9bd dea1 1cbe
00000040: b4bd 123f 666b 04bc 97e5 7c3d e5a0 e93d
00000050: d0c3 c73c 7f9e 95bd 3fa7 cd3d 86d9 c13d
00000060: 3305 1a3e 506e 83bd 0a68 063e 3b57 34bd
00000070: ff56 9c3d d1f0 6fbd ae8f a73b 33a1 adbd
00000080: f76e eabc 4201 ffbd 5359 343b f36c 8e3d
00000090: 3c1c 15bd d815 b23d 2287 7b3c e18c 6ebc
000000a0: 7129 613e 3ce2 b5bd efef 2a3e 07fa 0e3d
000000b0: 875c d83c 505c d33d 9ca3 9ebe a6c5 293d
000000c0: 1af3 02be 9f22 103e 2eaa a83c ee2f 9c3c
000000d0: 8282 0e3d cb83 81bd 0780 c1bd 81c9 d93d
000000e0: bb11 e53c 4978 25bd 3757 fc3d f623 633c
000000f0: 7b36 343d 2186 ca3e f3b6 21be b9fc 0a3e
00000100: a788 cfbd 7a5a d93b 7be3 0abd f8a3 b9bd
00000110: 1a28 9dbd ec84 d3bd 595a f9be 4d84 96bd
00000120: 8159 18bd a3a3 65bd be4f 98bd 217d 10bc
00000130: 5ba5 1f3d a6fd 10be 80d7 d93b a2e2 923d
00000140: 2e71 6fbf ae47 753d e83b 57be 7d45 a6bd
00000150: e30b d43d 002f 3bbd b005 5d3d 5785 4a3b
00000160: 9d32 223d 83da 9dbd 8fa8 44be f291 dfbd
00000170: dda3 e83d 1f4b b9bd 33c8 35bd f18c be3d
00000180: 2bc6 e3bc e3b2 3ebd 8d89 e1bd 6c08 84bd
00000190: 7506 b2bd a368 00be f81c 133d 6ea7 553e
000001a0: 8439 a9bd 8dc0 013e e8b8 97be fa66 3f3d
000001b0: e539 5e3c 1589 aa3b 9e6a c93e b99d 5cbc
000001c0: f380 bdbd 1ff8 ea3c 9f27 123e 4072 113d
000001d0: 5919 d83d 43d2 86bd cdb1 f8bd 998b babd
000001e0: f80c 8ebd e03f d5bd fee6 7a3d cfe0 09be
000001f0: 9ae5 d8bd a566 c8be be07 3c3e 05e3 36bd
00000200: 62c7 083e 819a 92bd e26a c9bc 1e91 91bd
00000210: e0ac 793d 126b 98bd 4db4 7d3e 6031 3a3c
00000220: 2a1f dbbd 3849 72bd e2bb 17bc e4c1 1bbe
00000230: 9cac d7bd dbb8 d93d f190 3f3e c56c 803d
00000240: cc03 4b3f 4cd7 b93c a71a 3a3e 2da8 413d
00000250: 4169 5a3d 4c73 60bd e932 8cbc d33a 5bbd
00000260: 37d4 3bbd 1753 1ebe d865 723e 3542 253e
00000270: 1904 47bd 7d5b 1e3d c05b 9c3d b0ab dcbd
00000280: 4fef 1c3d 3264 75bd 1774 debd c2c0 b9bb
00000290: f495 2a3e c8b6 85bd 1a6d 773b 05ee 1bbe
000002a0: 5d54 363c c66b 6b3d f971 3d3d 03bd fc3d
000002b0: 0f91 063e 885a 8dbb 692b 8dbe 850d f03c
000002c0: c91b 4c3d aa7d 203d 4af5 c03d 630c 203d
000002d0: 8e88 0dbe 44e6 14bd f05c cc3d b6ac 22bd
000002e0: 3ed5 fa3c 6f39 c0bd dda3 873d 4fda 883d
000002f0: 1f69 b73b dccb 8d3e 140a 45be 9152 8bbd
0.11922795 0.020338066 0.13549535 -0.11687795 0.029371437 -0.000658799 0.6764169 0.056531835
-0.11131849 0.029000945 0.058492936 -0.051249526 0.06822966 0.10452424 -0.10608407 -0.15296122
0.57320714 -0.008082246 0.06174239 0.11407641 0.024385363 -0.07305621 0.10041665 0.094653174
0.15041046 -0.06417525 0.13125625 -0.044028502 0.07633781 -0.05857927 0.0051135635 -0.08478012
-0.028617365 -0.12451412 0.0027519062 0.06954374 -0.03640388 0.086955726 0.015352042 -0.014559955
0.21988465 -0.088810414 0.1669309 0.034906413 0.026411308 0.103203416 -0.309842 0.041448258
-0.12788048 0.14075707 0.02058896 0.019065823 0.03479243 -0.06323966 -0.094482474 0.10634137
0.027962556 -0.040397916 0.123213224 0.013863554 0.04399727 0.39555457 -0.15792446 0.13572969
-0.10133486 0.0066331 -0.03390835 -0.09064478 -0.076736644 -0.10328087 -0.48701742 -0.07349453
-0.037194733 -0.05606426 -0.074370846 -0.008818896 0.038976055 -0.14159259 0.006648004 0.07172133
-0.93532073 0.059882812 -0.21018946 -0.081187226 0.1035383 -0.04569912 0.053960502 0.003090223
0.03959905 -0.077076934 -0.19204925 -0.10916509 0.113593794 -0.09047531 -0.044380378 0.09304226
-0.027804455 -0.04655732 -0.11012564 -0.06446919 -0.08692638 -0.12539916 0.0359163 0.2086465
-0.08262923 0.12671109 -0.2963326 0.046729065 0.013563608 0.0052043297 0.39339155 -0.013465338
-0.09253111 0.028682766 0.14272927 0.035509348 0.1055171 -0.06583073 -0.12143288 -0.091086574
-0.06936067 -0.10412574 0.061255448 -0.13464664 -0.10590668 -0.39140812 0.18362328 -0.044650096
0.13357309 -0.071583755 -0.024587099 -0.07107757 0.060955882 -0.07442297 0.2477581 0.011364311
-0.106993034 -0.059151858 -0.009261103 -0.15210682 -0.105309695 0.106309615 0.18707635 0.06270746
0.7930267 0.02268567 0.1817423 0.047279526 0.053323034 -0.054797456 -0.01711412 -0.053522896
-0.04585668 -0.15461384 0.23671663 0.16138537 -0.048587892 0.03866147 0.076346874 -0.10774934
0.03831416 -0.059910007 -0.10861986 -0.0056687305 0.16658765 -0.065290034 0.0037754239 -0.15227516
0.011128512 0.057475828 0.04625127 0.123407386 0.13141273 -0.0043137707 -0.27572182 0.029303322
0.049831185 0.039182343 0.09421785 0.039074313 -0.13821623 -0.03635241 0.09978664 -0.03971549
0.03061926 -0.093859546 0.06623051 0.06682264 0.005597248 0.27694595 -0.19242126 -0.06802858

fc.bias f4 [3]
00000000: 4383 88bd dc8c cabd 26ef 9e3d
-0.06665661 -0.09890148 0.07760458
