project_checkpoints/best_tkan.pth (torch, 421295 bytes, 12 tensors)

lstm.weight_ih_l0 f4 [256, 144]
-0.003721519 0.0018707387 -0.003943011 0.00042702534 -0.0038159734 -0.012876603 -0.0038033717 -0.0029324847
-0.0037897557 0.008927941 -0.0038940012 -0.008505316 -0.0037890638 0.00051646965 -0.0037783722 0.0039146794
-0.003786665 0.015069678 -0.0038893118 -0.00010151502 -0.0038212442 0.003919188 -0.0037796998 0.0036943855
-0.0038703738 0.0022079095 -0.0038269584 0.001921071 -0.003857402 -0.0037729773 -0.0038721696 0.0062457286
-0.0038327961 -0.003816322 -0.0038892033 -0.0010699828 -0.0038878412 0.007984776 -0.0038050604 0.0020415974
0.004935422 0.0029839436 -0.00071014947 -0.00066549977 -0.0008870211 -0.0004232587 -0.0026396832 -0.0030991598
-0.0029318396 -0.0037469387 -0.0038453138 -0.003783925 -0.0038872354 -0.0038297009 -0.0037635386 -0.0037677542
-0.0038414968 -0.0037889457 -0.0038066113 -0.0038299072 -0.0066634184 -0.019277927 -0.02410228 -0.0029575287
-0.012162706 -0.006571244 -0.009373864 -0.0054129395 -0.006345279 -0.01682223 -0.00091940555 -0.0038021775
-0.011040118 -0.0005192648 0.004141832 -0.029495522 0.0035867903 0.0010089825 -0.006675429 -0.0066061155
-0.0037862067 -0.003864804 0.0021933566 0.0012763203 -0.0019559413 -0.003907406 -0.012746012 0.01482373
9.990607e-05 0.007700675 -0.0020255025 0.011695472 -0.00245173 0.009119679 -0.015521841 -0.008804
-0.0048891287 0.0034637807 -0.0053131073 0.0026680946 -0.0063010487 -0.0017655046 0.0041731014 -0.0052725985
-0.0074496157 -0.0076410063 0.0041008135 0.013208421 0.0059443344 -0.0011689578 -0.0024056344 -0.0081341285
0.0088893 5.9417576e-05 -0.002880257 0.012861573 0.0032346135 0.005706911 -0.003908612 0.0045030923
-0.00082885026 0.009991455 -0.002984032 -0.004628825 -0.0022782825 -0.0072502648 0.015355036 0.006629266
0.005551473 -3.748279e-05 -7.098712e-05 4.945999e-05 0.013058797 -0.011017392 -0.0060652876 0.0001624748
-5.9041536e-06 -0.00028318164 -0.0037013767 -0.018202804 -0.019081088 -6.4875276e-05 0.0002861613 -0.00024722845
6.0898765e-05 -5.7814323e-05 9.870701e-05 0.00016412372 0.000284449 6.334938e-05 -0.00018642755 0.00019263577
0.000102766244 -5.476285e-05 -4.924869e-05 2.9385126e-05 0.00017528456 -0.00013959686 6.522116e-06 -0.00013990958
-0.00014292459 0.00016022284 -0.00014883833 0.000100498735 0.0002981549 -9.317237e-05 -0.0003661617 -6.2572194e-06
-4.8039823e-05 0.00023511116 -0.0001250214 0.000163662 6.652491e-05 -6.0605664e-05 4.000369e-05 -7.4785334e-05
-0.00015002032 2.2109773e-06 0.00021419967 -5.1851875e-05 -0.00012489688 5.782123e-05 6.0718477e-05 -3.1965676e-05
-9.379025e-05 6.519968e-05 3.4838088e-06 -9.913971e-05 -9.054736e-05 0.00021706695 -6.462261e-05 0.0001851859
9.706819e-05 0.00015440579 -0.00025972602 5.1718485e-05 3.3445463e-05 -0.00024497433 -0.00021710992 -2.8505177e-05
-0.00030558792 6.274238e-05 -8.219901e-05 6.1843e-05 0.00011633529 -9.2663926e-05 -1.5446723e-05 -6.2692e-05
0.00010047791 -8.512254e-05 0.000109017936 4.127943e-05 -6.94384e-05 -1.606076e-05 8.224226e-05 -9.181532e-05
-3.4405086e-05 0.00020292932 -2.5733834e-05 -6.449258e-05 2.2631302e-05 -8.6339605e-05 0.00019957652 -8.487338e-05
0.0001403191 2.8247458e-05 -0.00015500686 -3.2002834e-05 -9.762033e-05 -1.6172346e-06 0.00013946608 4.8382568e-05
2.9193545e-06 2.346918e-06 -0.00013614731 -1.4415687e-05 -0.00021940784 -5.207551e-05 7.342977e-05 3.210788e-06
-2.4955772e-05 -0.00016307106 -4.3707136e-05 -2.6118088e-05 -3.0180161e-05 -9.571961e-05 0.00010446638 0.00011023972
0.00020622894 -1.716586e-05 2.9431589e-05 -1.1209828e-05 -5.3735886e-05 -5.368156e-05 0.0002630138 -1.1634783e-06
00000000: bae4 73bb 9333 f53a 6034 81bb 5fe2 df39
00000010: 6915 7abb 63f8 52bc fd41 79bb ee2e 40bb
00000020: 8d5d 78bb 8046 123c 8032 7fbb e259 0bbc
00000030: f151 78bb b163 073a 919e 77bb b646 803b
00000040: b229 78bb d0e6 763c d3e3 7ebb 76e4 d4b8
00000050: d76d 7abb 886c 803b d7b4 77bb 811d 723b
00000060: 19a6 7dbb 93b2 103b b5cd 7abb 72cc fb3a
00000070: 77cc 7cbb 0e44 77bb 3ac4 7dbb f8a8 cc3b
00000080: a62f 7bbb 421b 7abb 01e2 7ebb aa3e 8cba
00000090: 27cb 7ebb 94d2 023c 525e 79bb 52cc 053b
000000a0: 52b9 a13b 448e 433b 5329 3aba ef74 2eba
000000b0: fa86 68ba d2e8 ddb9 89fe 2cbb 461b 4bbb
000000c0: 1b24 40bb 338f 75bb a901 7cbb bafb 77bb
000000d0: fdc0 7ebb b8fb 7abb b3a5 76bb 6dec 76bb
000000e0: 9fc1 7bbb f64f 78bb 5778 79bb 2eff 7abb
000000f0: ce58 dabb beec 9dbc 2572 c5bc 19d3 41bb
00000100: 1646 47bc 9753 d7bb d694 19bc 075f b1bb
00000110: 0fec cfbb c6ce 89bc 4304 71ba f42d 79bb
00000120: 9ce1 34bc 451f 08ba 34b8 873b 98a0 f1bc
00000130: 5b10 6b3b d63f 843a 8fbd dabb 1d78 d8bb
00000140: 0222 78bb a748 7dbb 6bbe 0f3b 344a a73a
00000150: 402f 00bb b209 80bb a6d4 50bc 3bdf 723c
00000160: aa84 d138 f255 fc3b 4bbe 04bb 5d9e 3f3c
00000170: 34ad 20bb b56a 153c 524f 7ebc a73e 10bc
00000180: fc34 a0bb 9900 633b 9319 aebb 33db 2e3b
00000190: 0779 cebb 8168 e7ba 83be 883b c3c5 acbb
000001a0: e81b f4bb 6861 fabb 1e60 863b 2268 583c
000001b0: b1c8 c23b b737 99ba d9a7 1dbb 0245 05bc
000001c0: 6da4 113c 2337 7938 b2c2 3cbb 59b9 523c
000001d0: cffb 533b 0a01 bb3b d013 80bb ad8e 933b
000001e0: 3347 59ba 33b3 233c c08f 43bb 66ad 97bb
000001f0: 3d4f 15bb a193 edbb b093 7b3c 503a d93b
00000200: 21e9 b53b d736 1db8 ebde 94b8 4373 4f38
00000210: 91f4 553c 4b82 34bc 52bf c6bb ff5d 2a39
00000220: 4b1c c6b6 ff77 94b9 cc92 72bb 0c1e 95bc
00000230: f14f 9cbc a60d 88b8 eb07 9639 719e 81b9
00000240: 8d6d 7f38 a87d 72b8 ec00 cf38 a018 2c39
00000250: 1922 9539 70da 8438 c47b 43b9 45fe 4939
00000260: 3584 d738 2ab1 65b8 6190 4eb8 1480 f637
00000270: 97cc 3739 bf60 12b9 8dd8 da36 b1b4 12b9
00000280: 07de 15b9 7e01 2839 7c11 1cb9 d9c2 d238
00000290: ac51 9c39 8965 c3b8 64f9 bfb9 1bf5 d1b6
000002a0: 5e7e 49b8 2c88 7639 2d18 03b9 af9c 2b39
000002b0: 4a83 8b38 d632 7eb8 a3c9 2738 12d6 9cb8
000002c0: c64e 1db9 4d60 1436 c99a 6039 877b 59b8
000002d0: c0f6 02b9 1385 7238 f8ab 7e38 e212 06b8
000002e0: 42b1 c4b8 d0bb 8838 61cb 6936 3ae9 cfb8
000002f0: 3ee4 bdb8 779c 6339 0086 87b8 762e 4239
00000300: 1691 cb38 fde7 2139 d62b 88b9 4dec 5838
00000310: cb47 0c38 e66f 80b9 00a8 63b9 671e efb7
00000320: 5137 a0b9 8f94 8338 4262 acb8 b5b1 8138
00000330: 09f9 f338 9154 c2b8 9693 81b7 8379 83b8
00000340: abb7 d238 d183 b2b8 8fa0 e438 7323 2d38
00000350: 759f 91b8 38ba 86b7 7a79 ac38 f98c c0b8
00000360: 2e4e 10b8 6dc9 5439 fdde d7b7 3140 87b8
00000370: 5ad8 bd37 3911 b5b8 6a45 5139 0dfe b1b8
00000380: 9f22 1339 f4f4 ec37 5689 22b9 c83a 06b8
00000390: 84b9 ccb8 c20f d9b5 a43d 1239 63ee 4a38
000003a0: 21ea 4336 bf7f 1d36 c4c2 0eb9 e7da 71b7
000003b0: d810 66b9 a76b 5ab8 4ffe 9938 eb78 5736
000003c0: 1d58 d1b7 0efe 2ab9 2e52 37b8 2b18 dbb7
000003d0: 672b fdb7 13bd c8b8 f614 db38 8030 e738
000003e0: 293f 5839 67ff 8fb7 dbe3 f637 d811 3cb7
000003f0: 7862 61b8 2328 61b8 1de5 8939 cf28 9cb5

lstm.weight_hh_l0 f4 [256, 64]
0.0006465061 -0.00015875702 8.0667814e-05 0.00014288051 0.0017604232 4.0403742e-05 -0.0022629963 0.0009099957
-0.00053574523 3.3944092e-05 0.00018642009 0.00010327493 8.348707e-05 0.00021899141 -1.1319411e-06 6.207929e-05
0.0001187981 -6.11391e-05 0.0055863312 0.0011619949 0.00016780816 -2.7972632e-05 -4.1802985e-05 -6.16397e-05
-0.00016962105 0.00022482027 -3.201837e-05 -9.596294e-05 0.0002021898 -0.00024562754 -3.388941e-05 0.0018789173
0.0014969816 0.00083324354 -0.0008316722 -5.2897427e-05 0.00011671345 -0.003588885 4.3903924e-06 -0.0017296697
5.7324996e-05 -0.00010102099 -0.00016654078 0.00022744703 -0.00013263317 -8.253074e-05 -0.00015222367 0.00012477288
6.842113e-05 8.724851e-05 -0.0010200163 0.0009036997 0.00010238374 -0.00050159864 -0.00010508658 -0.0011176486
0.00016409678 -8.457403e-05 6.729923e-06 -4.7280308e-05 -0.0026194134 0.00019856865 0.0008652847 -4.993934e-05
8.775564e-05 -0.00014203296 0.000194834 3.9790193e-05 -0.00021662714 -2.9436742e-05 0.00013969747 0.00019384087
-0.00027604733 -0.00026735157 0.00020782297 2.137134e-05 3.900998e-05 0.00011188039 0.000190757 -0.0002620577
0.00012604849 -6.189314e-05 5.453414e-05 6.3273976e-05 -1.8215875e-06 -2.3700255e-05 0.000159953 0.00019217008
4.7284735e-05 6.8046747e-06 8.27719e-06 -5.4128133e-05 0.00023390398 -3.4679088e-05 8.5809246e-05 3.4174393e-06
-2.4250555e-06 -4.3663855e-05 -0.00026893965 -3.118515e-05 -6.8699883e-06 -0.00013927302 -8.640306e-05 -0.00019137743
-0.00024886668 8.648455e-05 0.00011585221 0.00015813748 -0.00017047513 0.00019093209 -0.00015006734 -8.472898e-05
-0.0002307572 9.3393355e-05 0.00012647836 4.1299507e-05 -0.00019444755 2.434778e-05 -7.37529e-05 -0.00018220308
-1.1819272e-05 -5.5032346e-05 0.00016592769 8.555149e-05 3.2408567e-05 1.2053051e-05 -3.68163e-05 1.01802414e-07
0.00011654588 -4.0046776e-05 0.00020520088 -7.026383e-05 0.00012490232 4.896665e-05 0.00015805736 -0.00015759622
0.00012577741 -0.00026497163 -4.5038265e-05 -0.00017096924 -4.067976e-05 2.2725739e-05 -7.6830736e-05 0.00016507857
-8.493578e-05 6.351131e-05 -0.00021307192 -7.03116e-05 -0.00010680658 7.5783166e-05 0.00032525108 5.4655164e-05
8.983232e-05 0.00017436643 7.5493e-05 -0.00027341838 6.0897055e-05 -0.00016928211 0.00010954445 -0.00010668614
8.493535e-05 3.988496e-05 7.223189e-05 -0.00013619865 -0.00011642364 2.4468814e-05 0.00012964888 3.0299307e-05
1.7557753e-05 -7.577475e-06 -6.2008476e-05 -0.00028399174 0.00015637366 -9.029892e-06 -0.00021889916 -1.4971602e-05
0.00012332856 3.9704864e-06 0.00021753575 -3.2504265e-06 3.9044597e-05 0.00021510186 -7.658385e-05 -8.406295e-06
0.00025418343 7.972687e-06 -0.000270251 -5.1086314e-05 -6.3720756e-05 -0.00027137296 -9.4265655e-05 5.5251453e-06
-1.9202818e-05 -7.924433e-05 0.00014074813 1.4575572e-05 -0.00021680523 -0.00024670857 4.2127092e-05 -0.00018852761
5.3546766e-05 -4.610416e-05 0.00010963091 -8.772544e-05 0.00019362297 -5.1574476e-05 -8.853036e-05 8.22572e-05
-6.2265235e-06 0.00013562341 -0.00011991863 0.00012744385 0.00023966363 -5.386965e-05 -0.00010738514 7.171196e-05
-6.679492e-05 -0.0002469933 9.41501e-05 0.0002092349 6.766912e-05 -9.1013346e-05 3.1801017e-05 0.000276844
0.00018197036 2.6685317e-05 -5.9364316e-05 -0.00011812473 0.00013056106 8.7237066e-05 0.0002390919 -0.00015968725
4.736196e-05 -0.00036035245 0.00021645325 0.00017241728 2.744632e-05 -0.000195368 -0.00028860976 -6.958151e-05
-0.00011751088 -0.00022083866 -0.00020262535 -0.00014012055 -3.5967987e-05 -8.7039065e-05 0.00014328166 -7.7252065e-05
3.625701e-05 2.3484452e-05 8.911492e-05 -0.00012498893 -0.0002013505 0.00012418324 4.345534e-05 -0.00019552962
00000000: 4a7a 293a 0378 26b9 342c a938 32d2 1539
00000010: 00be e63a 3077 2938 c74e 14bb c78c 6e3a
00000020: 4171 0cba 315f 0e38 c379 4339 4e95 d838
00000030: c815 af38 0fa1 6539 33ed 97b5 9130 8238
00000040: 3f23 f938 ce37 80b8 8b0d b73b 144e 983a
00000050: a9f5 2f39 c5a6 eab7 9d55 2fb8 9044 81b8
00000060: 4edc 31b9 bbbd 6b39 774b 06b8 b63f c9b8
00000070: e902 5439 92c7 80b9 7a24 0eb8 0146 f63a
00000080: 5e36 c43a 076e 5a3a 9404 5aba 2ede 5db8
00000090: 0ec4 f438 8033 6bbb 2f51 9336 16b6 e2ba
000000a0: 3f70 7038 3bdb d3b8 73a1 2eb9 d97e 6e39
000000b0: 7213 0bb9 5b14 adb8 3b9e 1fb9 77d5 0239
000000c0: 517d 8f38 30f9 b638 11b2 85ba 43e6 6c3a
000000d0: dab6 d638 b77d 03ba ee61 dcb8 107e 92ba
000000e0: 6511 2c39 565d b1b8 99d1 e136 d84e 46b8
000000f0: 77aa 2bbb de36 5039 46d4 623a f575 51b8
00000100: 7309 b838 afee 14b9 5b4c 4c39 65e4 2638
00000110: 6826 63b9 ecee f6b7 c17b 1239 c341 4b39
00000120: 72ba 90b9 522b 8cb9 0eeb 5939 9a46 b337
00000130: a69e 2338 54a1 ea38 f105 4839 ca64 89b9
00000140: e22b 0439 a0cc 81b8 96bb 6438 f5b1 8438
00000150: 457d f4b5 e9cf c6b7 0eb9 2739 4381 4939
00000160: 9953 4638 b653 e436 43de 0a37 a407 63b8
00000170: 1f44 7539 6374 11b8 7df4 b338 2957 6536
00000180: 23be 22b6 b523 37b8 7800 8db9 cdcc 02b8
00000190: c084 e6b6 d109 12b9 4a33 b5b8 7dac 48b9
000001a0: 527a 82b9 0a5f b538 aef5 f238 b5d1 2539
000001b0: 92c1 32b9 f134 4839 655b 1db9 86b0 b1b8
000001c0: 6af7 71b9 2ddc c338 479f 0439 0239 2d38
000001d0: 9ee4 4bb9 763e cc37 c9ab 9ab8 c40d 3fb9
000001e0: 634b 46b7 88d2 66b8 e0fc 2d39 1b6a b338
000001f0: 6fee 0738 7637 4a37 336b 1ab8 789e da33
00000200: 186a f438 e6f7 27b8 312b 5739 9b5a 93b8
00000210: 36f8 0239 8a61 4d38 33bc 2539 6a40 25b9
00000220: 1ee3 0339 e4eb 8ab9 78e7 3cb8 3546 33b9
00000230: 8f9f 2ab8 27a3 be37 3020 a1b8 f118 2d39
00000240: 8d1f b2b8 6031 8538 0f6c 5fb9 4174 93b8
00000250: 59fd dfb8 c7ed 9e38 7686 aa39 893d 6538
00000260: 5c64 bc38 22d6 3639 ff51 9e38 9859 8fb9
00000270: b76b 7f38 5281 31b9 3bbb e538 afbc dfb8
00000280: 521f b238 264a 2738 337b 9738 8cd0 0eb9
00000290: 7728 f4b8 6142 cd37 5bf2 0739 442b fe37
000002a0: fd48 9337 0442 feb6 8c0a 82b8 bae4 94b9
000002b0: 3cf8 2339 177f 17b7 4c88 65b9 8a2e 7bb7
000002c0: c251 0139 383a 8536 4f1a 6439 e721 5ab6
000002d0: d1c3 2338 f78c 6139 a49b a0b8 c308 0db7
000002e0: ec43 8539 6ec2 0537 7ab0 8db9 8345 56b8
000002f0: d2a1 85b8 1047 8eb9 7db0 c5b8 a364 b936
00000300: bd15 a1b7 fa2f a6b8 ca95 1339 9b89 7437
00000310: 3656 63b9 aa58 81b9 9fb1 3038 7faf 45b9
00000320: 6797 6038 f75f 41b8 a6e9 e538 3df9 b7b8
00000330: 4507 4b39 ac51 58b8 60a9 b9b8 7f81 ac38
00000340: 6eed d0b6 2236 0e39 d37c fbb8 73a2 0539
00000350: 374e 7b39 19f2 61b8 f533 e1b8 1164 9638
00000360: 4014 8cb8 e17e 81b9 7372 c538 1166 5b39
00000370: 95e9 8d38 6bde beb8 1562 0538 5f25 9139
00000380: 4ccf 3e39 48da df37 f3fd 78b8 bbb9 f7b8
00000390: 38e7 0839 0bf3 b638 beb4 7a39 b871 27b9
000003a0: 84a6 4638 b0ed bcb9 baf7 6239 e9ca 3439
000003b0: 863c e637 b3db 4cb9 8c50 97b9 4aec 91b8
000003c0: 2c70 f6b8 ed90 67b9 d477 54b9 53ed 12b9
000003d0: 55dc 16b8 be88 b6b8 e13d 1639 6302 a2b8
000003e0: ab12 1838 7a00 c537 35e3 ba38 760f 03b9
000003f0: 9d21 53b9 2f37 0239 d143 3638 1507 4db9

lstm.bias_ih_l0 f4 [256]
0.003943248 0.00024322733 -3.5800847e-05 -0.0002274601 0.18224768 -1.1181575e-05 0.18774334 0.5808385
0.040962864 -2.716294e-05 -1.2357394e-05 -9.765486e-05 0.00012207193 2.6373547e-05 -0.0001062426 -7.8340476e-05
-1.2671223e-06 -7.122368e-05 -0.0072814086 -0.03705176 0.04490265 -0.005018277 5.9098544e-05 7.223056e-05
6.882837e-05 1.4669203 -0.00010447543 2.3576908e-06 -0.00013408714 0.0010780201 8.572775e-06 1.6014305
0.008322555 0.066313356 0.37188202 0.00020760037 0.00013612454 0.00021718223 0.00010287565 -0.0042973263
3.8790422e-05 -0.000192381 9.143017e-05 -5.7602603e-05 0.00011459081 8.3362065e-05 5.570142e-05 -2.778283e-05
-0.0001547677 0.00022864841 0.004310502 0.0004987408 -0.00011516692 0.00016389794 -9.570343e-05 0.0023630601
-9.419467e-05 0.06512409 -8.208457e-06 1.9913146e-05 0.03937037 -0.00018714248 -0.0028343655 -7.5802665e-05
-0.0025866525 -5.2944775e-05 4.921872e-05 -3.2321237e-05 0.018781869 -0.00010687222 -0.0075959344 -0.0018216809
-0.1958777 -2.1093663e-05 -4.606534e-05 -0.0001460223 4.8379894e-05 -0.00019085838 -1.1721747e-05 -5.87127e-05
1.781626e-06 -8.669193e-05 -0.0024335985 -0.038130064 -0.21746992 -0.013716388 9.793221e-05 1.95261e-05
-0.0001884628 -1.2602018 2.9762028e-05 3.0359306e-05 -1.589246e-05 0.0013223261 0.0001363401 -0.7964319
-0.011080251 -0.019557452 0.005438597 -2.105243e-05 7.73415e-05 0.00021668267 -0.00020544292 0.50242
-6.305113e-05 0.0001525932 0.00016611449 -6.228157e-05 -7.211748e-05 0.00010070554 0.00010562633 0.00026619592
-3.7308142e-05 -8.062783e-05 0.1819467 0.0014601798 -8.7101216e-05 -0.001848666 -4.0401163e-05 0.13023257
9.439005e-05 0.0023185473 3.057907e-05 6.9392736e-05 -0.0071118423 -0.0001719243 0.6258828 4.5060748e-05
-0.0007827243 -2.287123e-05 1.1842363e-05 1.9164172e-05 -0.23869751 -2.9017547e-06 0.24845056 0.08241627
0.109433874 -8.731761e-06 6.9215544e-05 -0.0002344413 -3.5916235e-06 3.2811357e-05 -5.0811268e-05 6.101784e-05
-8.3397135e-06 4.2255924e-06 -0.07861703 0.0022277061 -0.27055407 -0.007884832 -0.00019406414 0.0001084477
6.782101e-05 0.22996263 9.516926e-05 0.00015675386 1.1670754e-06 -0.021791477 4.1782117e-05 -0.35791424
-0.01034442 -0.041686974 -0.0057112835 -7.5448293e-06 5.185369e-05 0.079928175 -5.1368515e-05 0.06567686
2.8350169e-06 -7.408589e-06 1.4820287e-06 1.7903696e-05 -3.476952e-05 1.3596716e-05 -8.432689e-05 -9.876593e-05
9.296137e-05 1.7796681e-05 0.048327025 0.21057235 0.00010147706 0.03150244 2.6270474e-05 0.0041665356
-4.5657936e-05 -0.0010490299 -1.1865981e-05 8.8329434e-05 0.024483375 -0.00057126145 0.3327965 0.0001608429
0.004019987 9.79117e-05 -5.924202e-05 2.212155e-05 0.506723 1.1831136e-06 0.750321 1.52967
0.5381211 -5.176447e-06 -9.3282324e-05 2.5257526e-05 -5.856515e-05 -0.00016747988 -8.250807e-05 -3.9127575e-05
2.0502725e-05 8.523823e-05 -0.012418874 -0.061159927 0.8634613 -0.06603304 2.9560682e-05 -9.030411e-05
2.872055e-06 0.7331058 -5.23962e-06 -0.000120554825 4.9240887e-05 -0.028380085 -0.00018057704 1.1200731
0.00784432 0.0011546597 0.9607915 1.1154689e-05 -2.001729e-05 -0.046163954 4.9344984e-05 1.2870988
5.37595e-05 5.074002e-05 5.980329e-05 -3.438292e-05 -2.8510663e-05 7.7159995e-05 -7.32139e-05 -1.2334539e-05
-0.00021116993 0.00018789104 0.6790533 -0.00096892193 -6.870614e-05 -0.0011768148 -9.139868e-05 0.0032744822
4.048615e-05 0.0063796747 8.075582e-05 8.2231556e-05 0.98706734 4.724869e-05 0.6674195 5.993083e-05
00000000: 5d36 813b d70a 7f39 de28 16b8 5b82 6eb9
00000010: 239f 3a3e 8098 3bb7 ca3f 403e d5b1 143f
00000020: adc8 273d f8db e3b7 9a52 4fb7 0ecc ccb8
00000030: 6f00 0039 c33c dd37 90ce deb8 b94a a4b8
00000040: fe11 aab5 ec5d 95b8 e298 eebb 96c3 17bd
00000050: d7eb 373d 5c70 a4bb 94e0 7738 7d7a 9738
00000060: f357 9038 0bc4 bb3f d219 dbb8 d238 1e36
00000070: be99 0cb9 5a4c 8d3a cad3 0f37 adfb cc3f
00000080: 535b 083c 4ccf 873d 5267 be3e 4daf 5939
00000090: a7bc 0e39 69bb 6339 f2be d738 96d0 8cbb
000000a0: e6b2 2238 e2b9 49b9 33be bf38 539a 71b8
000000b0: 7950 f038 abd2 ae38 f2a0 6938 2c0f e9b7
000000c0: 2349 22b9 57c1 6f39 1d3f 8d3b eebd 023a
000000d0: c585 f1b8 05dc 2b39 63b4 c8b8 92dd 1a3b
000000e0: 618a c5b8 c75f 853d 0eb7 09b7 280b a737
000000f0: d342 213d ad3b 44b9 c3c0 39bb 3ff8 9eb8
00000100: d484 29bb 0511 5eb8 3370 4e38 aa90 07b8
00000110: 6fdc 993c 9620 e0b8 51e7 f8bb 78c5 eeba
00000120: 2a94 48be 4cf2 b0b7 4836 41b8 901d 19b9
00000130: 84eb 4a38 2821 48b9 85a8 44b7 4842 76b8
00000140: 3420 ef35 60ce b5b8 027d 1fbb 452e 1cbd
00000150: 6fb0 5ebe b3ba 60bc f460 cd38 fbcb a337
00000160: 199e 45b9 4b4e a1bf 78a9 f937 1dac fe37
00000170: cc50 85b7 e751 ad3a 84f6 0e39 f6e2 4bbf
00000180: f189 35bc f336 a0bc 4236 b23b c099 b0b7
00000190: 6732 a238 5035 6339 2a6c 57b9 999e 003f
000001a0: 513a 84b8 6d01 2039 052f 2e39 2a9d 82b8
000001b0: c73d 97b8 e031 d338 b483 dd38 3690 8b39
000001c0: 507b 1cb8 bd16 a9b8 3c50 3a3e 8163 bf3a
000001d0: 1caa b6b8 f04e f2ba 6b74 29b8 b05b 053e
000001e0: 46f3 c538 c5f2 173b 0742 0038 f186 9138
000001f0: 750a e9bb 9446 34b9 db39 203f 9cff 3c38
00000200: bd2f 4dba 98db bfb7 90ae 4637 bfc2 a037
00000210: 1f6d 74be c4bb 42b6 d369 7e3e ddc9 a83d
00000220: de1e e03d a17e 12b7 d027 9138 5bd4 75b9
00000230: 9f07 71b6 ed9e 0938 2f1e 55b8 68ed 7f38
00000240: ccea 0bb7 90c9 8d36 f701 a1bd b5fe 113b
00000250: 1086 8abe 622f 01bc b27d 4bb9 6a6e e338
00000260: 213b 8e38 537b 6b3e 9b95 c738 4b5e 2439
00000270: 68a4 9c35 0a84 b2bc 353f 2f38 8940 b7be
00000280: a47b 29bc f6bf 2abd b825 bbbb 9729 fdb6
00000290: 7a7d 5938 62b1 a33d 8674 57b8 9781 863d
000002a0: 3841 3e36 4c97 f8b6 1eea c635 e52f 9637
000002b0: 7dd5 11b8 731d 6437 a8d8 b0b8 8e20 cfb8
000002c0: 41f4 c238 154a 9537 8ff2 453d 47a0 573e
000002d0: 15d0 d438 b408 013d 6a5f dc37 6f87 883b
000002e0: d680 3fb8 9a7f 89ba 0014 47b7 813d b938
000002f0: 5c91 c83c b5c0 15ba 4e64 aa3e f0a7 2839
00000300: 18ba 833b f255 cd38 a27a 78b8 ab91 b937
00000310: 99b8 013f 79cb 9e35 0915 403f 3acc c33f
00000320: 4ec2 093f 57b1 adb6 91a0 c3b8 20e0 d337
00000330: daa3 75b8 8a9d 2fb9 2f08 adb8 ea1c 24b8
00000340: 44fd ab37 edc1 b238 8878 4bbc d582 7abd
00000350: cd0b 5d3f 553c 87bd 15f9 f737 a661 bdb8
00000360: 87bd 4036 d2ac 3b3f fecf afb6 61d2 fcb8
00000370: 0088 4e38 5a7d e8bc 4859 3db9 8e5e 8f3f
00000380: 7685 003c f357 973a 6ff6 753f 0625 3b37
00000390: ceea a7b7 6a16 3dbd c6f7 4e38 a7bf a43f
000003a0: d37b 6138 aed1 5438 4bd5 7a38 6136 10b8
000003b0: 2f2a efb7 f5d0 a138 6a8a 99b8 71f0 4eb7
000003c0: 7f6d 5db9 9e04 4539 70d6 2d3f 40ff 7dba
000003d0: 5416 90b8 5a3f 9aba 4bad bfb8 b298 563b
000003e0: accf 2938 970c d13b 735b a938 bb73 ac38
000003f0: 72b0 7c3f e52c 4638 01dc 2a3f 3d5e 7b38

lstm.bias_hh_l0 f4 [256]
0.0039324528 0.00017318355 -1.2928954e-05 2.3325254e-05 0.18167366 -8.188495e-05 0.1870277 0.58085704
0.04094701 -6.308243e-05 -9.123751e-05 0.00027803352 -0.00025806815 2.6168216e-05 7.002958e-05 0.00025406035
-2.4477316e-05 -6.238592e-05 -0.007317628 -0.036539204 0.04491064 -0.0047206106 -8.1319056e-05 -4.607418e-05
0.00015758172 1.4656298 -8.238216e-06 -3.5585377e-05 1.8702212e-05 0.0010580698 2.3490373e-05 1.6016533
0.0083215535 0.066314265 0.35193655 -5.7371723e-05 0.00013540171 -0.00029119232 0.00019453057 -0.004296276
-4.582099e-05 0.00010767757 2.1207929e-05 2.2774118e-05 -0.000106396816 -3.0952917e-05 -9.651734e-05 0.00025767786
0.00026673145 -3.464079e-05 0.0042819316 0.00051220006 0.00015681017 0.00023515818 -1.4632153e-05 0.002329832
-1.7776185e-05 0.06344858 -3.5500834e-05 2.7258355e-05 0.040224817 -0.00020867154 -0.0028558194 -1.9007548e-05
-0.0025864127 -7.926656e-05 2.274567e-05 5.8980295e-05 0.01879519 1.7911027e-05 -0.0075917356 -0.0018201945
-0.19584301 -4.8084844e-06 8.5406245e-05 -6.156814e-05 -7.215924e-05 0.0001811986 -0.00029848528 3.5552166e-05
-6.369314e-05 -2.896845e-05 -0.002432386 -0.03823027 -0.19146408 -0.012942487 0.00011837255 0.00016296994
0.0001949995 -1.2618262 -1.9429439e-05 3.8479327e-05 0.00026352 0.0016483917 -7.384393e-05 -0.7965024
-0.011074182 -0.019545784 0.0054398873 0.000112275426 2.2507396e-05 0.00022325524 2.0943273e-05 0.50244117
0.0001217645 -0.00013401346 -5.2473086e-05 9.5484946e-05 -0.0002183081 -8.285924e-05 -9.971068e-05 5.8849517e-05
-2.2966156e-05 8.561509e-05 0.181946 0.0014903913 8.873384e-05 -0.0018320393 1.6415092e-05 0.1302477
-1.2242657e-05 0.002360533 -0.00016114613 5.961856e-05 -0.007075708 4.3003347e-05 0.62332135 7.447173e-05
-0.00079863466 -2.4857492e-05 -1.5902648e-05 -3.7891583e-05 -0.23151202 2.3481763e-05 0.24845873 0.106043495
0.120930426 -3.4715635e-05 -0.0001529723 0.0002983223 6.142337e-05 -4.3011387e-05 -5.476169e-07 0.0001827949
-7.0212004e-06 -0.000103004524 -0.09197907 0.0022262088 -0.26148793 -0.008049326 -0.0001299294 -2.8513363e-05
-1.8001772e-05 0.23068652 0.00023180751 -9.887188e-05 -0.00023676673 -0.02210138 -0.00016160504 -0.35794762
-0.010295305 -0.050170034 -0.005704183 7.932144e-06 -0.0002301715 0.079842746 6.607752e-05 0.06567655
7.4667264e-06 0.00028049864 -4.124507e-05 -1.2328235e-05 0.00018954343 7.9600126e-05 -5.7795536e-05 7.1120216e-05
-3.3612785e-05 4.005081e-06 0.050699316 0.20050943 7.693099e-06 0.03151587 -9.813053e-06 0.004168059
3.5889185e-05 -0.0010534108 -1.5344858e-05 0.00011127538 0.02448504 -0.0005669523 0.34019536 -4.9274102e-05
0.004130803 -0.0001002008 -8.7179375e-05 -3.8228936e-06 0.5066894 4.0202933e-05 0.750392 1.529659
0.5959406 -5.5023636e-05 -0.00011159193 5.7477242e-05 0.00015099518 5.56468e-05 2.056962e-05 -0.00020803748
8.899841e-05 5.784553e-05 -0.012444988 -0.060423564 0.8235897 -0.066041216 8.907862e-05 -5.4387263e-05
9.840515e-05 0.73474276 -2.1096494e-05 -8.7084474e-05 1.9410714e-05 -0.028012685 -3.883945e-05 1.1211053
0.007856906 0.0011905263 0.89222425 -6.261486e-05 -2.9734367e-05 -0.046109445 1.0902832e-05 1.2871146
-6.493369e-05 5.7489277e-05 4.018686e-05 4.275565e-06 -0.00020847344 5.3801814e-05 4.1211035e-05 0.00011583681
5.9755468e-05 -0.00014924895 0.72872776 -0.0009621771 -7.1500064e-05 -0.0011467367 2.2307071e-05 0.0033227217
0.0001004568 0.0063638953 -1.3290018e-05 6.545426e-05 0.98825216 0.00024410174 0.667452 5.102474e-05
00000000: cedb 803b 9b98 3539 6fe9 58b7 9aaa c337
00000010: a908 3a3e a6b9 abb8 3084 3f3e 0cb3 143f
00000020: 0db8 273d 1f4b 84b8 c456 bfb8 07c5 9139
00000030: 524d 87b9 d183 db37 d8dc 9238 6733 8539
00000040: a354 cdb7 30d5 82b8 b6c8 efbb 22aa 15bd
00000050: 38f4 373d 5aaf 9abb d689 aab8 c63f 41b8
00000060: 853c 2539 c299 bb3f de36 0ab7 8241 15b8
00000070: b2e2 9c37 eeae 8a3a 310d c537 fa02 cd3f
00000080: 2057 083c c6cf 873d 0731 b43e 6ba2 70b8
00000090: 9ffa 0d39 2cab 98b9 e7fa 4b39 c6c7 8cbb
000000a0: ea2f 40b8 f5d0 e138 aee7 b137 0c0b bf37
000000b0: 5b21 dfb8 71d3 01b8 5a69 cab8 f018 8739
000000c0: 17d8 8b39 444b 11b8 724f 8c3b 2a45 063a
000000d0: 696d 2439 cb94 7639 9e7c 75b7 18b0 183b
000000e0: 111e 95b7 54f1 813d bbe6 14b8 dfa8 e437
000000f0: c7c2 243d d7ce 5ab9 b328 3bbb 6672 9fb7
00000100: ce80 29bb e93b a6b8 f4cd be37 9c61 7738
00000110: 5ff8 993c a33f 9637 18c4 f8bb 9893 eeba
00000120: 128b 48be 9158 a1b6 211c b338 251e 81b8
00000130: 3254 97b8 2100 3e39 047e 9cb9 d91d 1538
00000140: ff92 85b8 4601 f3b7 aa68 1fbb 5897 1cbd
00000150: 290f 44be ba0c 54bc c73e f838 e9e2 2a39
00000160: c878 4c39 8583 a1bf 67fc a2b7 dd64 2138
00000170: 0e29 8a39 d90e d83a a8dc 9ab8 95e7 4bbf
00000180: 7c70 35bc 7b1e a0bc 1541 b23b 6975 eb38
00000190: 44ce bc37 9f19 6a39 56af af37 fc9f 003f
000001a0: d15b ff38 f785 0cb9 8c16 5cb8 173f c838
000001b0: a2e9 64b9 b7c4 adb8 c41b d1b8 30d5 7638
000001c0: 72a7 c0b7 408c b338 0d50 3a3e 3c59 c33a
000001d0: 9e16 ba38 0a21 f0ba 24b3 8937 a75f 053e
000001e0: d065 4db7 2cb3 1a3b 56f9 28b9 f10e 7a38
000001f0: 57db e7bb 7e5e 3438 fd91 1f3f b52d 9c38
00000200: 775b 51ba 0f85 d0b7 ad66 85b7 c7ed 1eb8
00000210: 7d11 6dbe b4fa c437 f76b 7e3e 552d d93d
00000220: 5faa f73d a19b 11b8 3067 20b9 2468 9c39
00000230: 6cd0 8038 2067 34b8 f2ff 12b5 a2ac 3f39
00000240: a797 ebb6 2204 d8b8 865f bcbd 96e5 113b
00000250: bfe1 85be 52e1 03bc a83d 08b9 fb2f efb7
00000260: 8302 97b7 1639 6c3e 5b11 7339 7059 cfb8
00000270: 9644 78b9 f40d b5bc 8674 29b9 e944 b7be
00000280: a4ad 28bc 187f 4dbd 28ea babb 4d14 0537
00000290: 315a 71b9 9884 a33d 1993 8a38 6d81 863d
000002a0: b18a fa36 e40f 9339 8ffe 2cb8 5ed5 4eb7
000002b0: 2dc0 4639 feee a638 7c69 72b8 6026 9538
000002c0: 74fb 0cb8 6263 8636 16aa 4f3d 5852 4d3e
000002d0: 9c11 0137 c916 013d bea2 24b7 3794 883b
000002e0: b887 1638 9a12 8aba d5b8 80b7 845c e938
000002f0: da94 c83c 869f 14ba 162e ae3e aaab 4eb8
00000300: b05b 873b e522 d2b8 12d4 b6b8 6846 80b6
00000310: 66b6 013f 929f 2838 b119 403f decb c33f
00000320: 908f 183f 2ec9 66b8 7606 eab8 b813 7138
00000330: 7654 1e39 4c66 6938 ec8c ac37 a324 5ab9
00000340: a8a4 ba38 2a9f 7238 10e6 4bbc b37e 77bd
00000350: c6d6 523f 9e40 87bd b8cf ba38 e11d 64b8
00000360: dd5e ce38 1a18 3c3f 60f8 b0b7 1fa1 b6b8
00000370: 31d4 a237 dc7a e5bc 8be7 22b8 6180 8f3f
00000380: 41ba 003c 6f0b 9c3a cf68 643f 1950 83b8
00000390: 116e f9b7 42dd 3cbd 4feb 3637 2cc0 a43f
000003a0: 022d 88b8 a420 7138 508e 2838 d376 8f36
000003b0: aa99 5ab9 42a9 6138 03da 2c38 6aed f238
000003c0: f2a1 7a38 b67f 1cb9 e78d 3a3f 9d3a 7cba
000003d0: 4ef2 95b8 194e 96ba 1220 bb37 05c2 593b
000003e0: 55ac d238 3988 d03b 31f8 5eb7 7d44 8938
000003f0: 18fe 7c3f 90f5 7f39 22de 2a3f 6603 5638

lstm.weight_ih_l1 f4 [256, 64]
-1.7987359e-05 -0.00023208855 0.00012771365 -0.00017299409 -7.071471e-05 4.027558e-05 -0.00017609134 0.00018089071
9.252528e-06 9.2997936e-05 -0.00015584665 9.695926e-05 0.00012020424 -5.5430166e-05 -1.8934066e-05 6.90278e-05
3.7688194e-05 -1.2357556e-06 0.00022572497 0.00017290314 -0.00023613522 -0.00010145545 -9.806878e-05 0.00030190047
-4.5670604e-05 0.0002047561 -0.00014758288 -3.5054658e-05 7.579424e-05 -0.00014141618 -5.4985558e-05 0.0001274771
-4.3460943e-05 2.8417011e-05 -0.00015072721 3.689116e-05 -0.00024076177 -0.00027069656 2.156542e-05 5.8902842e-06
8.621437e-05 -0.00010350883 -3.583891e-05 1.9756759e-05 2.1159709e-05 -8.445046e-05 1.3615369e-05 1.9012464e-06
-2.4700473e-06 2.277524e-05 8.262149e-06 2.6343816e-05 -7.886672e-05 -4.072695e-05 -0.000118016076 2.8658324e-05
-0.000119957636 0.00016768926 -0.00013473842 -0.00013928763 0.00014960371 -0.00016163982 7.145148e-05 6.0215287e-05
0.00020928479 2.8142327e-05 0.0002036746 -0.00015355297 8.52998e-05 0.00024204669 6.0668033e-05 0.00022435893
3.6099682e-05 0.00014117362 -2.2213751e-05 0.000120373974 0.0002088105 -7.951682e-05 -2.3546216e-05 0.00016811816
3.4409008e-05 9.918691e-06 -2.7342649e-05 -6.186107e-05 9.835218e-05 1.0432376e-05 -5.9984345e-06 5.243516e-05
9.181235e-05 9.589046e-05 1.8699247e-05 6.11379e-05 6.5768676e-05 0.00015887781 0.0001159614 -6.193695e-05
7.3571005e-05 6.6018176e-05 -0.00014710208 -5.6376597e-05 -0.00010529228 -0.00013197616 -0.00019490247 0.00024162783
-0.00012213079 -9.064881e-05 4.5028668e-05 1.259563e-05 -2.9407705e-05 4.7050555e-05 -1.9002266e-05 -3.3533885e-05
0.00015152432 -0.00018636946 8.2769344e-05 -8.6927954e-05 0.00016994405 -2.3517967e-05 -0.00010017984 7.427594e-05
-0.00010369531 8.954152e-06 -1.4472938e-05 0.00019184023 8.6696884e-05 7.4817704e-05 -8.365033e-05 -3.8481787e-05
-1.19179285e-05 -1.0308633e-05 -4.388028e-05 0.000103505205 -0.0001530226 -6.494926e-05 -0.00017697873 0.00028826928
-1.9867104e-05 -6.441887e-05 0.00011282674 0.00017882243 -2.1724694e-05 -0.00013106661 -5.9839294e-05 0.00014827146
3.1092884e-05 -0.00029320427 6.4966625e-05 0.00015001262 8.0663565e-05 2.0845706e-05 0.00010993851 0.0001291511
1.5420304e-05 -0.00014367596 -9.7352015e-05 0.00019127627 -5.3320986e-05 0.00013597695 0.00011846898 0.0002755543
9.168135e-05 3.7434496e-05 -0.0001954105 0.00020425244 -0.00022556145 0.00010019033 0.00028906937 -0.00013184066
-0.00026029145 0.00026532443 0.00010859824 6.351283e-05 0.00033555686 0.00020784108 -7.463055e-05 7.071887e-05
-0.00013426052 -4.2728607e-07 -7.398511e-05 -0.00018622351 3.1688167e-05 -0.00014251117 2.905601e-05 -2.8484186e-05
-0.00010096118 6.827594e-05 -9.74165e-05 0.00019041178 -0.0001786075 0.00024269463 9.320001e-05 0.00012662352
-0.00025814684 2.7548564e-05 0.00021625868 -3.5189194e-05 -0.00013098674 8.451238e-05 8.943898e-05 -8.271912e-05
4.132328e-05 8.6816726e-05 0.00012893647 -2.8570172e-05 0.00014063314 9.855422e-05 -0.00017405869 2.4735855e-05
7.116544e-05 0.00030929747 -9.492328e-05 -0.00014874963 -6.249001e-05 0.00013193887 -2.1495467e-05 8.8163426e-05
8.2569295e-06 3.727755e-05 0.00038935198 0.00013503424 -0.00017946136 0.00020874351 9.989378e-06 -0.00018722088
-6.3531875e-06 -2.8783885e-05 4.7811667e-05 9.3364026e-05 -5.970275e-06 -1.9883419e-05 -5.7269204e-05 9.274555e-06
7.1799055e-05 0.00012417109 -3.8544113e-05 -1.613812e-05 9.501167e-05 5.5556095e-05 6.707054e-05 -0.0001477498
-8.935226e-05 -1.773457e-05 -0.00010342725 -0.00013498632 -2.3239501e-05 5.2629886e-05 -1.044881e-05 -0.00019547303
-1.8654811e-05 -3.5036492e-06 0.00011621888 4.4105505e-05 1.0537579e-05 -0.00012480353 6.9022855e-05 0.00045220472
00000000: 8fe3 96b7 cc5c 73b9 dfea 0539 bf65 35b9
00000010: ac4c 94b8 93ed 2838 29a5 38b9 7bad 3d39
00000020: 4e3b 1b37 e307 c338 c46a 23b9 9b56 cb38
00000030: 2916 fc38 b07d 68b8 99d4 9eb7 05c3 9038
00000040: 6413 1e38 3ddc a5b5 96b0 6c39 554d 3539
00000050: 119b 77b9 7bc4 d4b8 46aa cdb8 6548 9e39
00000060: 708e 3fb8 ccb3 5639 7ac0 1ab9 a707 13b8
00000070: b9f3 9e38 1e49 14b9 4ba0 66b8 60ab 0539
00000080: d549 36b8 1161 ee37 870c 1eb9 95bb 1a38
00000090: ff74 7cb9 47ec 8db9 63e7 b437 28a5 c536
000000a0: fdcd b438 e112 d9b8 bd51 16b8 51bb a537
000000b0: 2180 b137 ff1a b1b8 916d 6437 542e ff35
000000c0: 17c3 25b6 750d bf37 a99d 0a37 eafc dc37
000000d0: 3f65 a5b8 3bd2 2ab8 667f f7b8 4867 f037
000000e0: c491 fbb8 bed5 2f39 9248 0db9 bd0d 12b9
000000f0: f1de 1c39 dc7d 29b9 39d8 9538 ac8f 7c38
00000100: 7573 5b39 3013 ec37 7c91 5539 1003 21b9
00000110: fbe2 b238 eacd 7d39 ce75 7e38 e441 6b39
00000120: bd69 1738 0108 1439 ab57 bab7 4971 fc38
00000130: 24f4 5a39 45c2 a6b8 1d85 c5b7 e048 3039
00000140: 6452 1038 7468 2637 e45d e5b7 69bb 81b8
00000150: 6d42 ce38 b706 2f37 2946 c9b6 d3ed 5b38
00000160: 618b c038 cc18 c938 54dc 9c37 2937 8038
00000170: 4aed 8938 7098 2639 4d30 f338 26e4 81b8
00000180: 224a 9a38 3d73 8a38 6a3f 1ab9 e975 6cb8
00000190: 5dd0 dcb8 1563 0ab9 bc5e 4cb9 7a5d 7d39
000001a0: 3c10 00b9 b61a beb8 2add 3c38 d251 5337
000001b0: 91b0 f6b7 2658 4538 0e67 9fb7 bca6 0cb8
000001c0: 80e2 1e39 2c6c 43b9 7494 ad38 174d b6b8
000001d0: 0233 3239 7348 c5b7 a417 d2b8 97c4 9b38
000001e0: ff76 d9b8 ca39 1637 ccd0 72b7 b828 4939
000001f0: 09d1 b538 73e7 9c38 6e6d afb8 8167 21b8
00000200: 1df3 47b7 3ef3 2cb7 180c 38b8 ef10 d938
00000210: b174 20b9 5e35 88b8 5e93 39b9 d922 9739
00000220: 48a8 a6b7 9e18 87b8 659d ec38 4882 3b39
00000230: 6d3d b6b7 ed6e 09b9 f4fb 7ab8 5179 1b39
00000240: bb69 0238 36b9 99b9 b13e 8838 b54c 1d39
00000250: ec29 a938 d0dd ae37 ca8e e638 bc6c 0739
00000260: da5a 8137 b9a7 16b9 7729 ccb8 5591 4839
00000270: f9a4 5fb8 0995 0e39 8d72 f838 4678 9039
00000280: 0d45 c038 fc02 1d38 1be7 4cb9 992c 5639
00000290: b184 6cb9 461d d238 3c8e 9739 b53e 0ab9
000002a0: ba77 88b9 3e1b 8b39 3cbf e338 3132 8538
000002b0: aeed af39 eaef 5939 f982 9cb8 e74e 9438
000002c0: 49c8 0cb9 c065 e5b4 7428 9bb8 fe44 43b9
000002d0: e9e8 0438 0d6f 15b9 4ebd f337 53f1 eeb7
000002e0: 1fbb d3b8 5e2f 8f38 164c ccb8 46a9 4739
000002f0: 9648 3bb9 d87b 7e39 6074 c338 3ec6 0439
00000300: e257 87b9 1718 e737 7fc3 6239 1c98 13b8
00000310: 7c59 09b9 3d3c b138 3091 bb38 7d79 adb8
00000320: 8952 2d38 6011 b638 1f33 0739 faa9 efb7
00000330: ec76 1339 e5ae ce38 8683 36b9 d87f cf37
00000340: a83e 9538 3429 a239 8c11 c7b8 adf9 1bb9
00000350: 120d 83b8 1259 0a39 2a51 b4b7 61e4 b838
00000360: 3e87 0a37 775a 1c38 f021 cc39 fa97 0d39
00000370: cb2d 3cb9 29e2 5a39 0d98 2737 b950 44b9
00000380: 772d d5b6 ec74 f1b7 6389 4838 6ecc c338
00000390: 4654 c8b6 51cb a6b7 5734 70b8 e999 1b37
000003a0: d392 9638 ec33 0239 6daa 21b8 5960 87b7
000003b0: 0041 c738 e704 6938 39a8 8c38 49ed 1ab9
000003c0: a162 bbb8 b3c4 94b7 15e7 d8b8 1d8b 0db9
000003d0: 73f2 c2b7 e9be 5c38 4c4d 2fb7 e4f7 4cb9
000003e0: e77c 9cb7 3c20 6bb6 89ba f338 edfd 3838
000003f0: 8fca 3037 b1dd 02b9 5dc0 9038 e415 ed39

lstm.weight_hh_l1 f4 [256, 64]
-0.00016872234 -4.5144385e-05 0.00019075656 -6.7410297e-06 -1.2980806e-05 6.6994544e-05 -6.059381e-06 -0.0002094666
-1.3108506e-05 -0.00018766685 -0.00024380306 9.1201255e-05 -0.00020898333 3.8913073e-05 -5.132332e-05 0.00012053955
-0.00024828324 -3.0050795e-05 -5.663955e-05 5.825728e-05 0.00014432304 -0.0003466667 -4.265694e-05 -2.6896954e-05
0.00013064523 -0.00016441359 -1.5551836e-05 -0.00014215725 -0.00015332112 8.061686e-05 -7.709988e-05 0.00023282196
7.841477e-05 -5.199492e-05 0.00019166942 0.00018887356 -4.1324747e-05 -0.00012671285 0.00016664562 -4.9646314e-05
2.9853914e-05 0.00012806077 -4.8568152e-05 9.920309e-05 4.9581195e-05 5.3056592e-05 -0.00022857997 -0.00039241975
6.378016e-05 0.0001239188 0.00010343698 -9.5874646e-05 -0.00013631384 -8.374779e-05 7.2942086e-05 7.310936e-05
0.00014920742 4.4608452e-05 5.3889744e-05 0.00014345783 3.644853e-05 0.00018852578 -9.945467e-05 -4.3595162e-05
-0.0001534159 -5.19813e-05 -0.00025524382 -0.00023677382 -0.00027999099 -4.4626544e-05 -0.00016238862 8.504309e-05
-1.4996397e-05 -3.2309024e-05 -0.0001660147 -0.0001426376 -0.00010072353 0.00019881081 7.0706824e-06 6.656652e-05
2.8059449e-05 -0.00015663009 -7.4598436e-05 -0.00014006978 7.832074e-05 0.00017352878 0.00012641212 1.2561404e-05
2.1509459e-05 3.380948e-05 0.00016734176 3.0358588e-05 -6.6805484e-07 7.2776666e-06 1.0858257e-05 -0.0003166758
0.00019544938 0.0001278827 -8.033614e-05 0.00020772107 2.2751332e-05 7.4527394e-05 0.00012815194 5.3735468e-05
-0.0002631205 7.8268844e-05 -0.00010203821 -7.796939e-05 7.0947867e-06 0.00016854456 2.0009977e-05 7.126367e-05
-8.18016e-05 -3.92025e-05 0.00014332574 -5.955628e-05 -7.1256705e-05 -6.350105e-05 -1.4544846e-06 5.568533e-05
4.0802843e-05 -4.0042876e-05 0.00012969114 4.0249073e-05 0.0001541169 1.0979076e-05 -0.000109359586 -3.181772e-05
0.00011338968 -4.0501996e-07 -0.00016129698 4.832493e-05 -4.6815338e-05 5.834544e-05 0.00012294878 -0.00016358405
3.9955553e-06 5.6363333e-05 -0.0002352151 0.00026230782 -8.681058e-05 0.00010279222 0.0001264563 -0.00021469471
0.000103668084 -0.00012638098 -0.0002741938 -0.00023483507 -2.1844546e-05 -0.00017033507 0.00013993698 0.00019752861
5.8662386e-05 -0.00012029451 2.7322126e-06 -8.840372e-05 8.887825e-05 -7.0471644e-05 0.00011354485 -8.057726e-05
-1.520732e-06 -8.761783e-05 0.00015776837 0.00015683024 0.00012864378 0.00010632809 -0.00013333546 0.00012304548
2.9724482e-05 -8.729811e-05 4.629878e-05 -0.00017118762 -0.0001055829 7.013678e-05 0.0003165617 0.0002270235
1.293506e-05 5.893877e-05 -4.930625e-05 0.00013759341 -6.443894e-05 0.00014111414 0.00024111934 1.2701236e-05
-4.3753982e-05 -8.334438e-05 3.9423387e-05 -6.802647e-05 -0.00015144254 0.000111001165 -6.1602145e-06 -0.00017959076
-2.443088e-05 8.1954924e-05 -2.2630718e-05 -2.6933072e-05 -0.00020912598 0.00011237518 0.00020344084 -7.5804426e-05
9.624181e-05 0.00010969266 5.2216314e-05 -5.8027443e-05 0.00016733842 0.00016277083 -0.00013693002 0.00035659704
-0.00021470623 -8.848697e-05 -0.00015214886 -0.00029248462 -8.1213824e-05 -0.00010766526 -9.009447e-05 -0.00010557602
0.000111687164 1.5672444e-05 1.0085569e-05 2.2867875e-05 -4.4430017e-05 -5.293247e-05 -0.00018541601 -0.00023298577
-8.6857275e-05 -9.125381e-05 -0.00012757535 6.7294655e-05 8.663896e-06 -0.00024180427 -0.00012874551 9.537153e-05
6.751259e-05 -7.631961e-05 -9.574451e-05 -7.352068e-07 0.00022686203 2.5288473e-05 -5.54456e-05 -3.0952753e-05
3.1025636e-05 5.4361833e-05 8.754134e-05 6.656784e-05 0.00023274867 9.650553e-05 -0.000273445 6.356189e-05
-0.00011046683 4.6043537e-05 -0.00012349112 -1.0056781e-05 0.00011311552 -0.000104465296 2.7721006e-05 7.282186e-06
00000000: 0feb 30b9 6a59 3db8 d305 4839 0131 e2b6
00000010: 23c8 59b7 6c7f 8c38 b051 cbb6 43a4 5bb9
00000020: 9bec 5bb7 70c8 44b9 63a5 7fb9 4d43 bf38
00000030: 8922 5bb9 9836 2338 ff43 57b8 2eca fc38
00000040: 032c 82b9 9715 fcb7 4190 6db8 4759 7438
00000050: 6c55 1739 d1c0 b5b9 8aea 32b8 c5a0 e1b7
00000060: d0fd 0839 7066 2cb9 5075 82b7 0c10 15b9
00000070: d3c4 20b9 d910 a938 afb0 a1b8 ab21 7439
00000080: 9c72 a438 1f15 5ab8 defa 4839 5c0c 4639
00000090: 1c54 2db8 39de 04b9 98bd 2e39 533b 50b8
000000a0: cb6e fa37 0d48 0639 a8b5 4bb8 410b d038
000000b0: 67f5 4f38 1589 5e38 f8ae 6fb9 b0bd cdb9
000000c0: b6c1 8538 33f0 0139 4eec d838 4f10 c9b8
000000d0: 78ef 0eb9 c1a1 afb8 7cf8 9838 4a52 9938
000000e0: 9074 1c39 f619 3b38 ac07 6238 2b6d 1639
000000f0: 50e0 1838 01af 4539 5292 d0b8 f3d9 36b8
00000100: 44de 20b9 7f06 5ab8 3fd2 85b9 7d46 78b9
00000110: c1cb 92b9 632d 3bb8 dd46 2ab9 2959 b238
00000120: 0999 7bb7 8d83 07b8 3b14 2eb9 fd90 15b9
00000130: 893b d3b8 df77 5039 b340 ed36 a199 8b38
00000140: 3561 eb37 123d 24b9 bb71 9cb8 b2df 12b9
00000150: 2140 a438 47f5 3539 7f8d 0439 d2be 5237
00000160: 366f b437 a7ce 0d38 7678 2f39 92aa fe37
00000170: 6154 33b5 ae32 f436 dc2b 3637 8207 a6b9
00000180: 8bf1 4c39 4018 0639 237a a8b8 b3cf 5939
00000190: 1dda be37 974b 9c38 8660 0639 0562 6138
000001a0: 70f3 89b9 4424 a438 59fd d5b8 7f83 a3b8
000001b0: c10f ee36 56bb 3039 19db a737 6473 9538
000001c0: e68c abb8 5d6d 24b8 b649 1639 12cc 79b8
000001d0: a76f 95b8 de2b 85b8 b637 c3b5 ab8f 6938
000001e0: b823 2b38 b6f3 27b8 b3fd 0739 1dd1 2838
000001f0: 719a 2139 c632 3837 fb57 e5b8 0474 05b8
00000200: 9fcb ed38 8571 d9b4 d421 29b9 80b0 4a38
00000210: 965b 44b8 f0b7 7438 d0eb 0039 c287 2bb9
00000220: 8f11 8636 ab67 6c38 13a4 76b9 5c86 8939
00000230: 130e b6b8 2792 d738 5b99 0439 ac1f 61b9
00000240: 6168 d938 2385 04b9 abc1 8fb9 0f3e 76b9
00000250: ce3e b7b7 f99b 32b9 0cbc 1239 af1f 4f39
00000260: 420c 7638 a046 fcb8 0e5b 3736 6365 b9b8
00000270: 2664 ba38 2dca 93b8 ed1e ee38 96fb a8b8
00000280: f41b ccb5 77bf b7b8 a06e 2539 cc72 2439
00000290: 8de4 0639 75fc de38 f7cf 0bb9 c505 0139
000002a0: d758 f937 d113 b7b8 f030 4238 d480 33b9
000002b0: 636c ddb8 6616 9338 31f8 a539 280d 6e39
000002c0: a903 5937 0635 7738 2fce 4eb8 f346 1039
000002d0: 6423 87b8 0af8 1339 fbd4 7c39 6517 5537
000002e0: 7b84 37b8 2cc9 aeb8 8a5a 2538 6fa9 8eb8
000002f0: 8ccc 1eb9 4cc9 e838 d7b3 ceb6 8750 3cb9
00000300: eaf0 ccb7 37df ab38 19d7 bdb7 55ee e1b7
00000310: d448 5bb9 f7aa eb38 bc52 5539 31f9 9eb8
00000320: 6ed5 c938 cc0a e638 d702 5b38 7e62 73b8
00000330: 9177 2f39 76ad 2a39 df94 0fb9 a5f5 ba39
00000340: c422 61b9 1592 b9b8 268a 1fb9 9f58 99b9
00000350: 5751 aab8 59ca e1b8 1af1 bcb8 b268 ddb8
00000360: 9739 ea38 5178 8337 3035 2937 63d4 bf37
00000370: 5e5a 3ab8 cf03 5eb8 3b6c 42b9 a44d 74b9
00000380: 2527 b6b8 845f bfb8 bfc5 05b9 8b20 8d38
00000390: 265b 1137 d78c 7db9 dcff 06b9 3302 c838
000003a0: 8c95 8d38 c70d a0b8 71ca c8b8 075b 45b5
000003b0: d0e1 6d39 9522 d437 428e 68b8 44d3 01b8
000003c0: 8621 0238 9302 6438 6696 b738 569a 8b38
000003d0: ff0d 7439 0363 ca38 2b5d 8fb9 884c 8538
000003e0: 6eaa e7b8 df1e 4138 657d 01b9 8cb9 28b7
000003f0: 6f38 ed38 6114 dbb8 688a e837 8059 f436

lstm.bias_ih_l1 f4 [256]
2.8378863e-05 0.00012281348 -0.00019349475 -1.4013483e-05 5.8813675e-05 3.943158e-05 -3.9316645e-05 1.2032447
-9.545872e-07 -7.470997e-05 -2.919137e-05 0.113558486 0.48123807 -1.4984841e-05 -0.00015963797 -0.0002682187
-0.0001009154 -4.737725e-05 -0.00013837345 -3.932692e-05 0.00012693593 9.026023e-05 -7.5860095e-05 0.00030666208
7.109057e-05 1.4934814e-05 0.00015595097 -8.6665505e-06 -0.00025818762 -0.00020494782 0.00023935358 0.000118927645
0.28117174 -1.083894e-06 0.8847207 8.342399e-06 -0.000108392785 -0.00016448954 -3.9166913e-05 8.050131e-05
-0.00011923855 0.000275825 -4.678646e-05 0.39861178 1.13797526e-07 -9.103082e-05 7.645477e-05 -0.00012665396
0.00019595092 -0.000109423716 -0.00019725754 0.00013391007 -1.3336588e-05 4.079513e-06 -0.00013105341 -5.929603e-05
-5.8013866e-05 -0.00020799768 0.524532 0.00013380818 8.530337e-05 -0.00021678416 9.987032e-05 3.813216e-05
7.9461766e-05 8.798627e-05 -0.00011943731 -1.150614e-06 0.00023790555 -5.714386e-05 -0.00011471971 -0.1732206
-7.353174e-05 0.00019049353 -3.6884783e-05 -0.00787584 -0.1434985 1.3194949e-05 0.0001074199 -0.0001503182
1.5603557e-06 0.00011863444 -5.8479563e-05 8.105518e-05 0.000100656536 -0.00013247032 4.9172562e-05 -2.6495918e-05
0.00014889371 -0.00012033891 0.00025344949 -3.0234214e-05 0.00018610928 -0.00028827903 0.00011962482 -0.00015509552
-0.48312742 0.00025470852 -0.07330435 -1.0906923e-05 0.00011105781 -0.00012002992 -3.9596915e-05 3.0662777e-05
-0.00017419217 6.59558e-05 8.4551204e-05 -0.5457096 -9.691801e-07 -2.3083134e-05 -0.00015958984 -0.00018285363
-0.000105333784 -0.00013349435 -0.00019418869 -7.661692e-05 -0.00011583894 -0.00015027559 -0.00010748519 1.6202946e-05
-4.4025834e-05 -6.603385e-05 -0.5022804 -0.00021848851 4.5317644e-05 0.00038489123 -0.00013485509 -6.283054e-06
7.07538e-05 -0.00032550143 0.00011232481 -0.00019397543 0.00013483762 -0.00021403327 0.00013836354 0.05338774
6.534301e-05 -9.784886e-05 0.0002039123 0.0088942945 -0.0063119475 8.019344e-05 -0.0002586512 -0.00027969392
3.7708265e-05 -0.00020118852 0.00028814276 -4.555101e-06 3.471971e-05 -0.00030706645 -0.00023661346 0.00011557565
-5.4804486e-06 2.8157096e-05 -0.00016886831 -0.00022339332 4.7095622e-05 2.7704786e-05 -0.00032933836 -0.00024375349
0.0119217215 -0.00013233576 -0.056482766 0.00022142199 9.7352684e-05 4.640097e-06 -1.4067296e-05 0.00036842024
-2.1475132e-06 -1.3759018e-05 9.743213e-05 0.023851464 -9.056117e-05 0.00013637802 -0.00017695868 -3.2885393e-05
4.7831632e-05 -0.00015581393 7.6008314e-06 0.00018594257 -8.225805e-05 0.00023563819 -2.9290824e-05 0.00026231317
-0.00028772678 0.00012188429 0.039628014 -0.00016870885 -4.649449e-05 -0.0002856415 -4.8604626e-05 -0.00019648665
0.00016483181 -6.164748e-05 -0.0002587295 8.951383e-05 4.2840136e-05 -0.00014263549 0.00015382971 1.5216178
0.00012343674 -7.377216e-05 0.0001055126 0.46618286 0.47667485 -4.9686634e-05 0.00013253897 -0.00013538834
-3.7871225e-05 -3.8557693e-05 -2.3648801e-05 1.8013721e-05 -8.07209e-05 0.0001334002 -6.172233e-06 -0.0002397937
-7.568388e-05 -2.7524433e-05 -6.344788e-06 8.10506e-05 0.00012435792 9.875585e-06 -2.6920043e-05 -7.580154e-05
0.052114606 -0.00010504308 1.104836 3.7518046e-05 -6.803041e-05 0.00015710719 1.2635149e-05 -9.690597e-05
-6.417672e-05 -3.4380606e-05 -2.3282118e-06 0.079618834 -0.00018375767 0.000111254296 -5.329865e-05 -0.0001038041
-2.171253e-05 0.00016474238 1.9871128e-05 -0.00013821504 5.1394643e-05 4.9817027e-05 -0.00012933703 -4.4945486e-05
0.0001487697 0.00017223741 0.03228226 -0.00012411152 -0.00021451798 1.6364576e-05 9.476744e-05 -2.1871834e-05
00000000: 250f ee37 7ec7 0039 dae4 4ab9 741b 6bb7
00000010: b4ae 7638 5663 2538 ede7 24b8 ec03 9a3f
00000020: 5e1f 80b5 9cad 9cb8 fddf f4b7 5a91 e83d
00000030: d664 f63e 6767 7bb7 7e64 27b9 b49f 8cb9
00000040: 8ba2 d3b8 efb6 46b8 5718 11b9 f5f2 24b8
00000050: 1b1a 0539 184a bd38 1417 9fb8 7dc7 a039
00000060: 7616 9538 8a90 7a37 c586 2339 8d66 11b7
00000070: 5b5d 87b9 43e7 56b9 fdfa 7a39 cb68 f938
00000080: bef5 8f3e 507a 91b5 0e7d 623f 55f6 0b37
00000090: ef50 e3b8 d37a 2cb9 2747 24b8 d0d2 a838
000000a0: b60f fab8 9b9c 9039 943c 44b8 d816 cc3e
000000b0: da60 f433 cde7 beb8 5856 a038 6ace 04b9
000000c0: 2d78 4d39 697a e5b8 ebd6 4eb9 366a 0c39
000000d0: 36c0 5fb7 c0e2 8836 626b 09b9 a1b4 78b8
000000e0: ea53 73b8 f419 5ab9 bb47 063f dc4e 0c39
000000f0: e6e4 b238 8e50 63b9 7871 d138 18f0 1f38
00000100: b6a4 a638 4585 b838 6b7a fab8 cc6e 9ab5
00000110: 4976 7939 c1ad 6fb8 ad95 f0b8 be60 31be
00000120: 0d35 9ab8 38bf 4739 bcb4 1ab8 ab09 01bc
00000130: 45f1 12be e05f 5d37 9f46 e138 bc9e 1db9
00000140: 6a6d d135 61cb f838 f447 75b8 2bfc a938
00000150: 9117 d338 bbe7 0ab9 a33e 4e38 8d43 deb7
00000160: 5a20 1c39 765e fcb8 6ae1 8439 7b9f fdb7
00000170: 5426 4339 2824 97b9 16df fa38 23a1 22b9
00000180: 7a5c f7be 668a 8539 9720 96bd e1fc 36b7
00000190: b5e7 e838 93b8 fbb8 dd14 26b8 e89b 0038
000001a0: 5ba7 36b9 c051 8a38 1551 b138 a0b3 0bbf
000001b0: c614 82b5 a7a2 c1b7 9257 27b9 66bc 3fb9
000001c0: a5e6 dcb8 9efa 0bb9 219f 4bb9 65ad a0b8
000001d0: 8fee f2b8 4c93 1db9 ac69 e1b8 90eb 8737
000001e0: 61a8 38b8 a77b 8ab8 7395 00bf 101a 65b9
000001f0: 7313 3e38 3acb c939 e367 0db9 06d3 d2b6
00000200: a861 9438 10a8 aab9 ec8f eb38 e265 4bb9
00000210: 3363 0d39 1e6e 60b9 ae15 1139 1aad 5a3d
00000220: c308 8938 3534 cdb8 4bd1 5539 60b9 113c
00000230: 74d4 cebb 862d a838 949b 87b9 e2a3 92b9
00000240: f128 1e38 22f6 52b9 de11 9739 05d8 98b6
00000250: 01a0 1138 c3fd a0b9 711b 78b9 3461 f238
00000260: b2e4 b7b6 e732 ec37 3e12 31b9 b03e 6ab9
00000270: 8a88 4538 9367 e837 0cab acb9 1498 7fb9
00000280: 5353 433c 9cc3 0ab9 795a 67bd 832d 6839
00000290: d329 cc38 21b2 9b36 9402 6cb7 8728 c139
000002a0: ff1d 10b6 88d6 66b7 7a54 cc38 2564 c33c
000002b0: a8eb bdb8 b200 0f39 fc8d 39b9 6cee 09b8
000002c0: d39e 4838 fc61 23b9 a50a ff36 94f9 4239
000002d0: f481 acb8 a515 7739 91b5 f5b7 1487 8939
000002e0: 09da 96b9 219c ff38 fc50 223d 70e7 30b9
000002f0: 1403 43b8 27c2 95b9 d2dc 4bb8 fc07 4eb9
00000300: b4d6 2c39 bd48 81b8 16a6 87b9 5fb9 bb38
00000310: 3faf 3338 6c90 15b9 594d 2139 5fc4 c23f
00000320: cc6e 0139 20b6 9ab8 a546 dd38 85af ee3e
00000330: ba0e f43e 9e66 50b8 29fa 0a39 08f7 0db9
00000340: ebd7 1eb8 02b9 21b8 6a61 c6b7 2c1c 9737
00000350: b448 a9b8 58e1 0b39 141b cfb6 2271 7bb9
00000360: 79b8 9eb8 45e4 e6b7 50e5 d4b6 b6f9 a938
00000370: 1366 0239 51af 2537 5ad2 e1b7 a4f7 9eb8
00000380: 2076 553d 934a dcb8 446b 8d3f b25c 1d38
00000390: 8cab 8eb8 24bd 2439 8dfb 5337 ff39 cbb8
000003a0: 9d96 86b8 e533 10b8 603e 1cb6 330f a33d
000003b0: 13af 40b9 3251 e938 fd8c 5fb8 67b1 d9b8
000003c0: 4e23 b6b7 b2be 2c39 ecb0 a637 d1ed 10b9
000003d0: 9490 5738 a0f2 5038 a59e 07b9 d983 3cb8
000003e0: 10ff 1b39 a19a 3439 673a 043d ef23 02b9
000003f0: 3bf0 60b9 a946 8937 e2bd c638 6879 b7b7
