project_checkpoints/best_lstm.pth (torch, 351795 bytes, 10 tensors)

lstm.weight_ih_l0 f4 [256, 144]
00000000: 39a2 86bd 0e5d 313e 1cf5 e33d ca92 6cbe
00000010: 4df4 0bbd ae34 6dbe 183e e93d e97d 00be
00000020: 9cac d63d bd18 87bd 0f02 cabd 8a91 84bd
00000030: 3256 74bd 8d66 4dbd fa2d f03c 75e5 f3bd
00000040: 548c 93bd bcc8 d83d edde 80bd 2bff 0b3d
00000050: b74d 3ebd a82d 06be a9fa a9bd dc41 05be
00000060: 9d86 e73c 23a9 0a3d 7934 10bd 9c30 18be
00000070: bd58 453d ae03 ce3d 2236 093e 7946 053e
00000080: 2ebe 883d 9676 043e d9ad fa3c bfdb 8cbc
00000090: 1adf a2bc 8f56 dcbd 3d07 37bd e117 7bbd
000000a0: 2635 fcbd d8c8 a1bd 2515 c9bd 6f0e 3a3d
000000b0: 8d11 853c 9c88 c8bd d53b 05be e38d f8bc
000000c0: ca99 38be d954 20be 8d75 9a3d 9d72 ad3c
000000d0: 51ca 4c3d 10b6 59bc 3c22 153d 3211 013e
000000e0: 9543 69bb 2eb8 0d3d 02f6 85bd e11f 9abd
000000f0: 36e7 c8bd 7909 c63d 9128 a33d 6c8f 1abe
00000100: c5dd 2bbe 2a30 c83c 9c67 1abd e80a ba3d
00000110: 9086 2a3b 0344 83bc d50b dabb 0527 c23d
00000120: b094 513e c58d b33d 2a01 45be 9b3e 07be
00000130: 3da9 f43c 2d1f 53bd 7090 123e e0b0 0ebf
00000140: 614b a43d 5080 b83d 224d 06be 0aea 5cbe
00000150: 99da ec3b bde9 1c3d 4cd9 ae3e 60de 273e
00000160: 15ae 91bf cb52 883d 5b8a 8dbc 8bfa b63d
00000170: ce5f fcbe a3f0 6f3e ee25 653e fd28 b5bd
00000180: 5a88 dbbe 8009 953d 4064 b83d 4222 c8bd
00000190: ede8 7dbe e44e 17bc 1fb6 963d 4172 a3bd
000001a0: 0635 1abe a80a 4d3d 941d 0f3e ecca 253c
000001b0: 77df 16be d607 9bbd 7189 103b f398 8cbb
000001c0: 4dbd 47be b48d 0ebe 2710 7b3d 77e4 f3bd
000001d0: 5c3d 59be e686 86be 54db 07be 780c aabd
000001e0: 239f 06be b38b e03d 690d 51be dc31 6c3c
000001f0: b5aa 45be 33ad abbd 7e0e 25bc b928 68be
00000200: 955f 03bf 30e7 18bc 885d 8cbd feb7 90bd
00000210: 2aa3 1dbd 3450 443e 58fa 283b e045 35bd
00000220: b81b 673d aa8c 90bd 5535 09bc 4aa7 b9bd
00000230: 2d0e 33bd 8ca4 763d 5079 e7bc 2ca1 9ebd
00000240: 660c 013e 028e 87be 8cb2 d83c e43e 3ebe
00000250: 302a 5f3c 23d5 7bbe 0be0 16bd 717f 03ba
00000260: 35de aabd 3438 1b3e 4e4a 8cbc 9a0f 8b3e
00000270: 93b4 44bd 862e e43c 24d7 c1bd d490 8a3d
00000280: 53ce debd 1178 fc3d c141 423d d379 76ba
00000290: 62c1 123d 36e9 df3c c8b8 513d 1a96 993b
000002a0: 829e 23bc 9aa8 b2be 7141 373d 1b79 693e
000002b0: 65b0 f83d 9cd5 c83d f671 c73c b066 883e
000002c0: 3bb4 d53d 8862 13bd 86aa 303c cd60 df3d
000002d0: 28b5 a5bd 21cc e93d 1b77 c63d d767 95bd
000002e0: d50d 6cbd 1ba0 7bbd dcd8 fc3c 9b07 05be
000002f0: 5c8f be3b bda5 c23c 833f 13bd 6af9 ab3d
00000300: 9b1b d03d e785 7ebd 0933 c1bb 2803 5ebc
00000310: 6258 bdbd 6395 9f3d 5ea3 9a3c 2f99 7dbd
00000320: 6335 e0bd b55e c6bd 538b 293d a311 0a3c
00000330: e575 3f3e d4ca a3bc 4815 7ebd 8998 843e
00000340: 7b5f 4c3d 3003 4d3d 3807 18be f8ed 8bbe
00000350: 7c20 263d 0811 82bd 1ece f13d 7b60 0abe
00000360: df5a 26be fb04 b33d 0450 783d 12e8 193e
00000370: 30fe b73d 5750 0b3e d6c3 4f3d b30f 7a3e
00000380: 36de aa3d 9ffa 1a3d 9168 7fbd 179c 773d
00000390: 560f ae3c 1948 943d a4fc 8d3d 00ea 6b3c
000003a0: ef00 14bc e46c 883e 4399 5c3d 483c 22be
000003b0: a871 7fbd 045b 88bd e80b 413e b8f6 a5bd
000003c0: af2d 0bbe 9226 b4bb f097 4a3e 5fe7 513e
000003d0: 2a08 79be 8291 bbbd e80e b33e 957f 523e
000003e0: 0217 d13d 50c8 a13d 9287 853e 5d58 1fbe
000003f0: fbb0 e43d 31ab 60bd 5f90 ac3e 95e9 64b8
-0.0657391 0.17320654 0.11130735 -0.2310287 -0.03416853 -0.23164627 0.113887966 -0.12548031
0.104821414 -0.06596515 -0.09863674 -0.06473072 -0.059652515 -0.05014663 0.029318798 -0.11909
-0.072045 0.10585162 -0.0629252 0.034178894 -0.046460833 -0.13103354 -0.08299763 -0.13013405
0.02826243 0.033852708 -0.03520629 -0.14862293 0.04818033 0.100592956 0.13399556 0.13015164
0.06676899 0.12935862 0.030600475 -0.017194627 -0.019881774 -0.10758697 -0.044684637 -0.06130207
-0.12314825 -0.07899636 -0.09818486 0.04542392 0.01624372 -0.09791681 -0.13011105 -0.030341094
-0.18027416 -0.15657367 0.07541952 0.021172816 0.04999763 -0.013288036 0.0364096 0.12604216
-0.003559326 0.034599476 -0.06541063 -0.07525612 -0.09809725 0.096697755 0.07966722 -0.15093774
-0.16783817 0.024437029 -0.037696466 0.090841115 0.0026020147 -0.016023641 -0.0066542425 0.09480099
0.20466876 0.08767275 -0.19238725 -0.13207476 0.029865855 -0.051543403 0.14312911 -0.5573864
0.0802219 0.09008849 -0.13115361 -0.21573654 0.0072282073 0.038308848 0.3415016 0.16393423
-1.1381251 0.066564165 -0.017277887 0.08934506 -0.49291843 0.2343164 0.2237775 -0.088457085
-0.42877465 0.072772026 0.09003496 -0.09772159 -0.24795885 -0.009235118 0.073589556 -0.079807766
-0.1505929 0.05005899 0.13976127 0.010119181 -0.14733683 -0.07569854 0.0022054578 -0.004290694
-0.19505806 -0.13921243 0.0612947 -0.119088106 -0.21214813 -0.26274794 -0.13267261 -0.083031595
-0.13146643 0.109641455 -0.20415272 0.014416184 -0.19303401 -0.083826445 -0.010074256 -0.22671784
-0.5131772 -0.009332463 -0.06853777 -0.07066344 -0.038485684 0.1917122 0.0025783982 -0.04425609
0.05642292 -0.070580795 -0.008374532 -0.09065111 -0.04371469 0.060215518 -0.028256088 -0.07745585
0.12602386 -0.2647553 0.026452325 -0.18578678 0.013620898 -0.24593024 -0.036834758 -0.00050162437
-0.08343164 0.15158159 -0.017125275 0.2716034 -0.04802377 0.027854215 -0.09464863 0.06765905
-0.10879197 0.12327588 0.04742599 -0.00094023085 0.035828955 0.027332883 0.05120161 0.004687083
-0.009986522 -0.34894258 0.044740144 0.22800104 0.121430196 0.09806368 0.024346333 0.26640844
0.10434767 -0.03598264 0.010782843 0.10907135 -0.080911934 0.114158876 0.09690686 -0.072951965
-0.05763038 -0.061431985 0.030865125 -0.12991183 0.0058154296 0.02376067 -0.03594924 0.08397181
0.10161515 -0.062139418 -0.0058959764 -0.013550557 -0.09245373 0.07792165 0.018876728 -0.061913665
-0.10947683 -0.09686033 0.041392636 0.0084270565 0.18697317 -0.019994177 -0.062032014 0.25897625
0.049895745 0.050051868 -0.14846504 -0.27329993 0.040558323 -0.06350905 0.11806892 -0.13513367
-0.16245602 0.08741184 0.060623184 0.15029934 0.08984029 0.13604866 0.050723873 0.24420051
0.083431646 0.037836667 -0.06235558 0.060451593 0.021247547 0.07240314 0.06932953 0.014399052
-0.009033426 0.26645577 0.0538571 -0.15843308 -0.06236425 -0.06657985 0.18852198 -0.081036985
-0.13591646 -0.005497762 0.19784522 0.20498417 -0.2431952 -0.09158613 0.3497231 0.20556481
0.102094665 0.07899535 0.26079994 -0.15561052 0.11166569 -0.05485076 0.33703896 -5.4576976e-05

lstm.weight_hh_l0 f4 [256, 64]
00000000: 277c 9abf d758 0ebf 7ad6 a23e ac01 cc3e
00000010: f110 3e3e b1f6 303e 005e b93d e27e b2be
00000020: 6b86 65be a11c c6be d437 1abf 4bc6 ba3e
00000030: bacc afbe 6a81 063e f48c 47bd e5d8 0f3e
00000040: 575c 7e3c faa3 503e a3ae 2b3f e499 073e
00000050: 4952 bfbe 982f f4be e9dd 5abf 2be6 913e
00000060: 3419 603e b2d4 e0be e539 cd3e 2813 993e
00000070: 88a6 27bf bc38 19be 4dd8 c03c 35ca 8ebe
00000080: a920 88be 249d e1be bab0 fe3e ac8e bd3d
00000090: 55be 133e f1a2 7a3d 177b 18be 2ba3 1a3f
000000a0: 697f 113e c0bc 983d aaa6 2abf 1e89 ac3e
000000b0: b05b 153e dad8 84be 7d5a 8ebe 40eb d83e
000000c0: 1d46 7bbd e087 67bd 0fec cc3e 8f03 043e
000000d0: e8fd d6bc 40b4 85be 0f08 8dbd 1619 24bc
000000e0: ef73 5f3e f836 4c3d 24ee 95be dffd 193d
000000f0: c29b 05bf 2f98 1e3e 4dc2 be3e e76d 3bbe
00000100: 5956 c83e 2959 ef3e 011e 123f 9384 883e
00000110: a88c 2bbc 04d8 ac3c 1c55 1dbf 29b0 b3be
00000120: d7cf 2bbf 7b5f 30be 9703 23bd f7f7 6ebe
00000130: 1a2d 873e 26b0 833e c1f2 8b3e 6b92 17be
00000140: c51a edbe 2eea cc3e 55f4 a83e 5f07 0d3e
00000150: bbbf 33bd c90e 183e 5bb6 1dbc c3ea ae3e
00000160: 8de2 c33c 0691 d1bd 7ca5 f03e 0537 1b3f
00000170: f2c7 053c 7196 47bf f5bb d63e 9df0 9cbe
00000180: c112 a0bd 50de 38be 1108 f23e a2db d7bd
00000190: ff78 7fbd a3a4 9e3d 5739 f0be 74dc 58bd
000001a0: ccbd 1dbd f1fe 1abe a775 e3bd 3745 25bf
000001b0: e82b 97bd 346a 503e 15f2 67be abad aabe
000001c0: 62fa 093f f326 533d 914c dfbe f72f 233d
000001d0: 662b fbbd 5375 c3bd 83fe fdbd a688 ab3e
000001e0: f266 0ebf be64 23bf f9eb f63d ff07 dbbe
000001f0: 2565 6d3e 318c d13e 8d7b 6ebe 82c5 283d
00000200: 6b4c b9bd 227d debd 0362 febf f983 cebe
00000210: 31ed 693e 60ea 0e3e f143 36bf 0ee0 a43e
00000220: 0a51 00bd ab4c 063e 968d 663e 1055 11bd
00000230: 559a 1dbe 7211 a5bb 70c3 463e e9bf 45ba
00000240: 05b1 683e 7097 71be 996a e63d 2678 3c3e
00000250: 2643 b7be 1178 0b3f b35a 55be 6c76 4ebf
00000260: 3117 d83d d3f0 14bf acce f23e b984 acbe
00000270: 2d3f a33e 1dc5 30bd d8c2 983e 468f 31be
00000280: 524c 063f b766 fdbd 3be5 503e 089e 44bf
00000290: 30c5 833e 3baf d03e 1411 3c3d bff3 123e
000002a0: bce4 473f 53fd 5bbe 7fd5 763f 3ca8 b9be
000002b0: b4e0 19bf 3815 933d 0615 26bd 42be af3e
000002c0: f8fc 2abe b163 353f 07a7 81bd f4a8 b4be
000002d0: 8052 0c3d f3ff babe a7a9 38be e37b 08be
000002e0: 73da d13e 391c 813f 06fb 6dbe 8ce9 a73d
000002f0: 9943 2d3e a351 18bf 7f30 bb3e b2f2 393e
00000300: d736 ae3d c6d6 09be f582 88bd 4802 94be
00000310: 3f61 33bb 6df0 30be 10a1 9dbe 105f 54bc
00000320: 0fe3 67be 8ac5 91be 64c7 503e 819e 813d
00000330: 67f8 2abe 3742 57bc db11 25be dfad 83be
00000340: 9fe5 0bbe 903e 4dbd 738f d93d d0ff e43d
00000350: e26d 96be 4b40 84bd 7084 ccbe 9232 d53c
00000360: ffd5 9a3e 00b9 0abf 9d99 593d 5800 ab3d
00000370: 340b 97be b7d5 a0bd 63de 693e b1cb 923e
00000380: ab9e d0bd b0a8 c2bd 13b6 40bd 2c4e 81bd
00000390: fe55 06be cc85 68bd 91ab 94be 8fd3 663e
000003a0: 756d e7bc dc2b 483d cab9 4d3e 9547 09be
000003b0: 9a55 193d 19f4 803d 4f0e 653c 070d e63d
000003c0: 0129 edbd dba9 c83e 87d0 cbbd 8ef9 8b3e
000003d0: 7ffa aebd dcc1 ddbc 1600 b73e 5ba3 6fbe
000003e0: a47f 873e 343c d33d deed c2be 7862 843e
000003f0: f7e0 85be a61a e7be 12e0 f3bd 9f46 263e
-1.2069138 -0.5560431 0.31804258 0.39845026 0.1856115 0.17281605 0.09051132 -0.3486243
-0.22414558 -0.38693717 -0.60241437 0.3647941 -0.3433588 0.13135305 -0.048718408 0.14047582
0.015524945 0.20375052 0.6706335 0.13242298 -0.37367466 -0.4769256 -0.8549486 0.28495917
0.21884614 -0.43912274 0.40083233 0.29897428 -0.6548848 -0.14963049 0.02354064 -0.27888647
-0.26587418 -0.440652 0.49744207 0.09255728 0.14428075 0.06119055 -0.14890705 0.60405225
0.1420876 0.07457876 -0.6666056 0.33698362 0.14585757 -0.25946695 -0.27803412 0.42366982
-0.061346162 -0.056526065 0.40023848 0.12891982 -0.026244119 -0.26114082 -0.06886303 -0.010015747
0.21821569 0.04985711 -0.2928325 0.037595626 -0.5219079 0.15487741 0.37257615 -0.18303643
0.39128378 0.4674771 0.5707703 0.26663646 -0.010470547 0.021099098 -0.6145799 -0.35095337
-0.67114013 -0.17223923 -0.039798345 -0.23336779 0.26401597 0.25720328 0.27333644 -0.14801948
-0.46309486 0.40022415 0.3299891 0.13772343 -0.04388402 0.1484939 -0.009625996 0.34163484
0.023911739 -0.10232739 0.47001255 0.6063083 0.008165346 -0.7796393 0.41940275 -0.30652323
-0.07816077 -0.18053555 0.4727178 -0.105399385 -0.06237125 0.07746246 -0.46918747 -0.052944615
-0.038511083 -0.15136315 -0.11106425 -0.6455874 -0.07381421 0.20353013 -0.2265094 -0.33335623
0.5389768 0.051550817 -0.43613103 0.039840665 -0.12264137 -0.09543862 -0.1240206 0.33502692
-0.5562583 -0.63825595 0.12056727 -0.42779538 0.23183115 0.4092727 -0.23289318 0.041203983
-0.09047779 -0.10863711 -1.9873661 -0.40335062 0.22844388 0.13956594 -0.7119742 0.3220219
-0.031327285 0.13115184 0.22514948 -0.035481513 -0.15390904 -0.00503748 0.19410491 -0.00075435505
0.22723778 -0.23592925 0.11250801 0.18405208 -0.35793418 0.5448008 -0.2083538 -0.8064945
0.105512984 -0.5817997 0.47423303 -0.3369501 0.31884137 -0.043156732 0.29836154 -0.1733981
0.52460206 -0.12373107 0.20399944 -0.76803637 0.2573638 0.4075869 0.045914724 0.14350794
0.78083396 -0.21483354 0.9641952 -0.36261165 -0.60108495 0.071817815 -0.040547393 0.34324843
-0.16698062 0.7085524 -0.06330686 -0.3528515 0.034258366 -0.365234 -0.18033467 -0.13328509
0.40986976 1.0086738 -0.23240289 0.081988424 0.16920318 -0.5949957 0.36560437 0.18158987
0.085065536 -0.13460836 -0.06665603 -0.2890799 -0.0027371196 -0.17279215 -0.30786943 -0.012962118
-0.2264521 -0.28471023 0.20388561 0.0632906 -0.1669632 -0.013138345 -0.16120093 -0.2571859
-0.13661812 -0.050108492 0.10623064 0.11181605 -0.2938071 -0.064575754 -0.39944792 0.02602509
0.3024139 -0.5418854 0.053125013 0.08349675 -0.29500735 -0.07853263 0.2283874 0.2867103
-0.101865135 -0.09504831 -0.04704864 -0.06313738 -0.13118741 -0.056768224 -0.29037145 0.2254164
-0.028250435 0.048869953 0.20090404 -0.13406213 0.03743515 0.06296558 0.013980462 0.112329535
-0.115800865 0.3919209 -0.09951883 0.27338833 -0.08543872 -0.027069978 0.35742253 -0.23402159
0.2646457 0.10314217 -0.38072103 0.25856376 -0.26148197 -0.4513752 -0.119079724 0.16237877

lstm.bias_ih_l0 f4 [256]
00000000: 4f34 d53e 8411 433e 4c68 1e3f ced1 de3e
00000010: 5c80 323e d84f a73e cca8 323e 66bc 14be
00000020: b2fe 26bd 1cbc b33d a934 023d 7647 23bc
00000030: ad36 903c 616b 8dbd 79e0 133d d3e7 ef3d
00000040: 230e a23e 93ca 2fbe 923c 113c 02ad 623e
00000050: 2967 b53a c016 31bc d5d2 133e 9885 fc3c
00000060: db7d 2fbc 5af8 d63d 4bdd 2dbd 9afa 04bd
00000070: f83c 9c3d 0f7b 68bd 4a0c 8ebe 9afd 5ebd
00000080: 422d 56bd 86fd 4ebe 93bc 8fbd ab89 91bd
00000090: 8c13 713f 292a 523d 39c6 b9bd 09ca a83e
000000a0: 4cbd 07bd 20c5 463f d148 dcbc 0470 923d
000000b0: 6113 d53d 2286 3d3d 376c a73d 5b4e cdbc
000000c0: 8f80 663e f5c5 9b3d d7a0 6ebd 8195 bb3d
000000d0: 528b 193e 1dbe 8f3e 3298 75bd 795a 623d
000000e0: e979 9c3c 8b3a 903d 3115 8b3c d382 8a3d
000000f0: 60ef 3ebe 69d2 a73c d226 8abd 4c51 893d
00000100: 5d1e 17be 02d6 c73d 379b 24bf c6e3 80be
00000110: 2344 1b3e 746a a6be 1d83 21be 9644 133d
00000120: 9781 c63d 2d1c 1fbe 2d1f 37be 7de6 c53c
00000130: f02a 803c dd84 b73d 5630 7cbd 7a1f 4b3e
00000140: 4e4c 4fbe f1fd 4c3e e2d7 0f3e ec42 4a3e
00000150: 4eb1 563e c322 62be 190a 6ebe 9146 4b3e
00000160: 55dc 273e 0d48 4d3d 8178 a03d 8cc4 563d
00000170: 34cd 18be d92c 85bb 07e0 d3bc 0d39 0dbd
00000180: d7d3 ef3d ef69 8e3a a278 eebd e1a3 9d3d
00000190: 54f0 25bf 1d39 6c3d 68b0 3bbe e706 c7be
000001a0: de4a 7d3d 10f3 3cbf 4865 75bd 6413 57bd
000001b0: aacd d2bd 2a1a 133e 4032 65be 22f7 613d
000001c0: d8e1 c1bc bdd3 05be 0dc3 5bbd 94fb 24be
000001d0: e1c9 6cbe 1a22 8dbe b3a3 673d f540 8d3e
000001e0: 0757 99bd e2c0 023e 654e 66be 90f1 ec3d
000001f0: 83b4 0cbd 6cd7 12be 1c2a 363e 9036 a7bd
00000200: 3b0b f6bd e9af 89be 471f 85be 55fe 113e
00000210: 176e b6bd 3824 a9be 3f99 4bbe 823f 5bbd
00000220: 6700 88be 3071 aabe c8fb 27be b71d 793d
00000230: 201d 91be 52b6 b03c 1f7b bf3d 579e 66be
00000240: d37c 9ebc de92 cdbd 6024 2a3c 98c2 903e
00000250: a603 69bd 1ecd 9e3c 2db4 d5bc ca5e 06be
00000260: ea3d 1abd 6ce2 93bd 17ba 4d3e 112d 553e
00000270: 82f7 373c 9f13 49bd 0685 0f3e d068 803d
00000280: ef06 8e3d aaff 49be 41d8 2dbe bad9 333d
00000290: 53c7 87bd 4c4d 2f3e bead afbd 3c9d 673e
000002a0: 9a11 953e 7e5f 9fbd 969d 823e 1532 41bb
000002b0: 3952 a0bd 14e4 cd3d 2fa8 c7bc 047b 933e
000002c0: f244 ce3d 7bdd 913e 502a 2e3e 2029 f0bb
000002d0: e29e c63c e0d9 2e3e 3b4b 86bd 4a1d 3ebe
000002e0: ade9 d7bc 866a b03e e963 b5bd b5c7 c4bc
000002f0: 8ab3 ddbe 1386 c9bd 5453 e7bd 5684 18be
00000300: 1548 c13e bb40 f83e 30f4 353f ce3e aa3e
00000310: cc97 2b3e b68b 993e 5f7a 473e ec0a 623d
00000320: d9da 943d b5bc 19be 3743 983e ac75 8b3d
00000330: 072d 063d 4243 773e 427e e53e cb8b 73bd
00000340: 9ed3 fb3e ba87 1bbc f757 a23e ee40 663d
00000350: fe9c 823e b1e7 263e 23c2 693e f3b5 163f
00000360: db10 c53d ceda f6bb e05a 343e 74e5 943e
00000370: 8729 f63e defe cd3d e465 923e eb43 3f3e
00000380: 6d13 1a3d 0196 28be bbd2 853e 096e aa3d
00000390: 3bc7 753f b7b8 993b 0fc7 423d cfae da3e
000003a0: 2c2c 753e 388b 553f 0fb0 333e d1c5 b73e
000003b0: cdc1 883e 8566 ea3d c1c5 003f 90db ec3d
000003c0: 49de 8d3e 5e3f 343e 4091 1d3e e4ba a03e
000003d0: bb77 c23d 3d1b 703e d427 903e 4382 10be
000003e0: ceca 693c b8d5 e63d a921 1e3e 8447 b13d
000003f0: 320d e9bb 7fe1 2e3e 6ecd 6cbd 8421 df3e
0.4164147 0.1904965 0.61877894 0.43519443 0.17431778 0.32678103 0.17447203 -0.14524993
-0.04077024 0.087761134 0.031788502 -0.009965768 0.017604196 -0.069052465 0.036102746 0.11714139
0.3165141 -0.1716712 0.008864539 0.2213631 0.0013839948 -0.010808647 0.14435895 0.030825421
-0.010711159 0.10496588 -0.04244737 -0.032465555 0.07628816 -0.056757983 -0.2774375 -0.054441072
-0.052289255 -0.20213899 -0.070183896 -0.07106336 0.9417045 0.05130974 -0.09071011 0.3296664
-0.033139512 0.7764454 -0.02689019 0.071502715 0.10404087 0.046270497 0.08174937 -0.025061777
0.22509979 0.07606117 -0.058258858 0.09159375 0.14994553 0.28074732 -0.059959598 0.055262063
0.0191011 0.07042416 0.016977878 0.06763234 -0.18646002 0.020486074 -0.06745686 0.06704959
-0.14757676 0.097576156 -0.6429934 -0.25173777 0.15162711 -0.32503092 -0.15772672 0.03595408
0.09692686 -0.15538092 -0.17882986 0.024157757 0.015645474 0.089608885 -0.061569534 0.19836226
-0.20243952 0.20018746 0.14047197 0.19752091 0.20966074 -0.22083573 -0.2324604 0.19851138
0.16392644 0.05011754 0.07835484 0.052433535 -0.14922029 -0.004064184 -0.02586366 -0.034478236
0.11710327 0.0010865311 -0.11644103 0.07697273 -0.64819837 0.057671655 -0.18329012 -0.38872454
0.061838977 -0.73808384 -0.059911042 -0.052508727 -0.102931336 0.1436545 -0.2238245 0.055167325
-0.023667261 -0.13069053 -0.05365281 -0.16111594 -0.23123886 -0.2756508 0.0565526 0.2758862
-0.07487302 0.12768891 -0.22490843 0.11569512 -0.034351837 -0.1433999 0.17789501 -0.08164704
-0.12013861 -0.2689202 -0.26000425 0.14257176 -0.08907717 -0.33035445 -0.19882677 -0.053527363
-0.26562807 -0.3328948 -0.1640464 0.060819354 -0.28342533 0.021571312 0.09349655 -0.2252134
-0.01934663 -0.10037778 0.010384649 0.28273463 -0.056888245 0.019384917 -0.026086891 -0.13122097
-0.037656702 -0.07220921 0.20090519 0.20817973 0.011228444 -0.049090978 0.14015588 0.062699914
0.06934916 -0.19726434 -0.16977026 0.043908812 -0.06629815 0.1711933 -0.085780606 0.22618574
0.2911499 -0.077818856 0.25510854 -0.0029479314 -0.07828183 0.10053268 -0.024372188 0.2880479
0.10071744 0.2848929 0.17008328 -0.007329121 0.024245683 0.170753 -0.06557318 -0.1856586
-0.026356542 0.3445627 -0.08856947 -0.024021009 -0.4330104 -0.09840026 -0.112951905 -0.14894232
0.37750307 0.48486885 0.71075726 0.3325104 0.16757125 0.29989403 0.19480275 0.055186197
0.072683044 -0.15013392 0.2973878 0.068095535 0.032757785 0.2414675 0.4482289 -0.05945949
0.4918489 -0.009492809 0.31707737 0.056214266 0.255104 0.16299321 0.22827964 0.5887138
0.096223556 -0.007533408 0.17612791 0.2908131 0.48078558 0.10058378 0.2859336 0.18678252
0.037616182 -0.16463472 0.26137337 0.08321769 0.96007127 0.004691209 0.04755312 0.42711493
0.23942631 0.83415556 0.1754763 0.3589311 0.26710358 0.11445335 0.5030175 0.11565316
0.27708653 0.17602298 0.1538744 0.31392586 0.09495493 0.2344789 0.28155386 -0.14112191
0.014269544 0.11271232 0.15442528 0.08656219 -0.0071121687 0.17078207 -0.0578131 0.43580258

lstm.bias_hh_l0 f4 [256]
00000000: c615 003f a32c 493e 2ead 273f c3bc 773e
00000010: df1e 463e fbd0 6c3e d6ca 253e b491 0bbe
00000020: 2f60 053d a9fc d63d de46 70bd 7653 68be
00000030: 2c98 c6bc 24fb 87be 22c9 103d 899c f9bc
00000040: 16a9 973e 1976 10bd c2c8 2f3c b5a2 7e3e
00000050: 7d0f b03c d9b6 88bd 6cd9 113e ee4f 3f3e
00000060: cc99 1c3e f8d2 093e 55ec b6bd cf1f 81bc
00000070: 2311 d9bc 18de 083e a9ba 94be 65b6 54bc
00000080: d19d f63d baed d8bd 13de 9cbd 54e4 14be
00000090: 0f67 683f cb1d 4fbd 6e65 b6bd b93c 933e
000000a0: c752 e7bc 9322 253f 33a4 b3bd 6870 3c3d
000000b0: 027b c13d fcc6 e93d afb7 9b3e 4752 1c3e
000000c0: 39dd 553e 500c be3d c733 d4bd 8e45 5e3e
000000d0: 0fc6 543d 05f2 5e3e f47c a53d 44cd 8dbd
000000e0: 195b cb3d ed00 923d 2169 15bd 5df7 313e
000000f0: d3d9 3abe 8db2 c03d c74f c63d fc05 123d
00000100: 0fad 57be 0ac0 0c3d 13df 3ebf 7f65 95be
00000110: ccdb bc3d bd02 7dbe 439c abbc bee2 a83c
00000120: 60d1 fa3d 167f f73c 0cb6 6cbe 7ea7 d73c
00000130: 9503 b1bd 49f1 c33d 0c38 8b3c 45ad 803e
00000140: 29d9 a6bc 79b0 2cbc ef6f 2e3e d75a 983e
00000150: 1e0a 873e 19e8 f4bd b4a4 dabe 4c72 23b9
00000160: dca2 5e3e 4412 113e 2d12 db3d 402c 2f3d
00000170: 31da cbbd 2ad9 013d b922 d5bd ff6a eebc
00000180: e138 293e d972 cebd 5111 b8bd 0c6a c8bd
00000190: 0692 33bf 4584 893d f322 53bc a5f7 0dbf
000001a0: 5a70 e9bd 8baf 25bf 7e74 10be 516c 273d
000001b0: e2f8 303d dac9 7a3e 730d a3be 3c7c 463e
000001c0: a6c8 8ebd 3bde 6bbd 317b 52bd d329 d2bd
000001d0: 1a72 9dbe 3d83 d8bd 38c2 463c 731b 3c3d
000001e0: d6e3 5fbe b518 863d 4193 33be 85b6 0e3e
000001f0: 5093 903c 3415 30be 1768 4d3d 0b9f 99bd
00000200: 5747 0abe ec31 adbe f145 b6be 694f fb3d
00000210: 5de9 593c 2f22 c2be 54a8 93be 4b13 67bb
00000220: f23a 98be 33d9 e8be eb63 84be 303c 143e
00000230: 342f 64be b43b 643e dd29 103d de2a 73be
00000240: 2cda 13be b787 bcbd 6459 c83d 1f1c 8d3e
00000250: 42be a3bd 06ea 89bc 4aa9 95bd 0598 82bd
00000260: 39d3 ac3d d127 5abe 0e4a 483e 62d7 773e
00000270: f58a 35be 6235 713d 375b 9b3d 6e01 d5bc
00000280: 7fd8 203e bf28 b8bd fb79 b63b 6c6d 97ba
00000290: 1d2a 36bd 9999 1e3e 3c51 78bd 9af4 433e
000002a0: ac2e 263e 1e0a b6bd a3cf 603e d598 1ebd
000002b0: d8b6 9ebd 7c12 f03d 893a 4abe deae 823e
000002c0: 0f8e 6c3e 101f 2a3e 3fa3 f13d bf35 a0bc
000002d0: efb7 91bd 6b6d 973e a6d1 08be 8f1d 663d
000002e0: 73b5 ae3c 9274 8c3e 2dc9 90bd 1e23 1b3e
000002f0: a82c 97be 4163 50be 1665 72bc 1993 8abd
00000300: da8d b13e 7102 033f 169e 1a3f 2c47 3d3e
00000310: fb40 353e 1e22 c73e 80d6 4b3e e5df 853d
00000320: b7de cc3d 5e6e 04bb 869e 9a3e ef73 1c3e
00000330: 21e6 f4bd 9f19 8b3e f298 653e b0ee 11bb
00000340: 304c ed3e a8e0 15be d7c9 cd3e 5475 a93d
00000350: d2e0 af3d 2fc6 223e bd5b 973e 5f9b 1d3f
00000360: c254 7d3e 07cf 523d 4d8a 2c3e 9ad2 243e
00000370: 6848 ef3e 409f de3d 2a1b 7b3e fc53 683d
00000380: b113 c93d 35c1 56be ebcf 8b3e 5ac0 e73d
00000390: b3d8 843f 6bb4 e23d 10b2 423e 6e9d f03e
000003a0: 423e 763e 2273 733f 62d5 bc3d 1b63 ca3e
000003b0: b873 e43e 2542 003e c75f 0f3f ddfc 1f3e
000003c0: a91f e53d 1b21 893d a3a0 c739 1d10 8d3e
000003d0: 9585 1d3e 656e 523e 7ff1 323e 7c8e 9fbd
000003e0: 1ee9 553e 9eb9 2b3e 40d8 4b3e 34ac 79bd
000003f0: cba2 803a 2c2e 2c3e 6b56 47bd 5b5f a63e
0.50033224 0.19645934 0.65498626 0.241931 0.19347714 0.23126595 0.16190657 -0.136298
0.03256243 0.1049741 -0.058661334 -0.22688088 -0.024242483 -0.26558793 0.035348065 -0.03047015
0.2962119 -0.035268877 0.010729017 0.24866755 0.02149176 -0.066755004 0.14243096 0.18682835
0.15293044 0.13459384 -0.089317955 -0.015762238 -0.02649743 0.13365972 -0.2904866 -0.012982939
0.1204182 -0.10592218 -0.07659545 -0.14540225 0.90782255 -0.050565522 -0.08906065 0.28757265
-0.028237714 0.6450588 -0.08771553 0.046005636 0.0944729 0.114149064 0.30413577 0.15265761
0.20885171 0.09279692 -0.10361438 0.2170622 0.051946696 0.2177201 0.080804735 -0.06923917
0.09929485 0.07129083 -0.036477212 0.17379518 -0.18247156 0.09409056 0.09683185 0.03565024
-0.2106211 0.03436283 -0.74559134 -0.29178998 0.092216104 -0.24708076 -0.020948535 0.020615932
0.12246966 0.030211966 -0.2311632 0.026324984 -0.08643261 0.09567506 0.016994499 0.25132194
-0.020367222 -0.010540121 0.17034887 0.29756805 0.26374906 -0.119583316 -0.42703784 -0.0001558747
0.21741813 0.14167124 0.10696826 0.04276681 -0.09953726 0.031701244 -0.104070134 -0.029103754
0.16525604 -0.10080499 -0.08987678 -0.09785852 -0.7014469 0.067146815 -0.0128867505 -0.55456
-0.113983825 -0.6472098 -0.14106938 0.040874783 0.043206103 0.24491063 -0.31846198 0.19383329
-0.069718644 -0.057584982 -0.051387016 -0.102618836 -0.30751115 -0.10571907 0.012131266 0.045924615
-0.21864256 0.06547681 -0.17536642 0.13936813 0.01764837 -0.17195588 0.050148096 -0.07501038
-0.13503776 -0.3382715 -0.35600236 0.12271006 0.013300267 -0.37916705 -0.28839362 -0.0035259302
-0.29732472 -0.4547821 -0.2585748 0.14476085 -0.22283632 0.222884 0.035196174 -0.23746821
-0.14438695 -0.09205573 0.09782675 0.27560517 -0.07995273 -0.016835224 -0.0730768 -0.06376652
0.08438725 -0.21304251 0.195595 0.24203256 -0.17728789 0.0588888 0.07585757 -0.026001658
0.15707587 -0.08992147 0.0055687404 -0.0011552996 -0.044473756 0.1548828 -0.060624346 0.19136277
0.16228741 -0.088886485 0.21954207 -0.03871997 -0.077497184 0.117222756 -0.19748892 0.25524038
0.23101066 0.16613412 0.11798715 -0.019556878 -0.07115161 0.29575667 -0.13361225 0.056180533
0.021326756 0.27432686 -0.07069621 0.15150115 -0.29526258 -0.20350362 -0.014794609 -0.06766338
0.34678537 0.511756 0.6039747 0.18484181 0.1770057 0.38893217 0.19906044 0.06536845
0.10003417 -0.0020207386 0.3019907 0.152786 -0.11957956 0.27167985 0.22421625 -0.0022267513
0.4634719 -0.14636481 0.40193054 0.08274332 0.08587803 0.15895914 0.29562178 0.615652
0.24739364 0.051466968 0.16849633 0.16095963 0.4673493 0.10870218 0.24522081 0.05672072
0.09818209 -0.2097214 0.27307066 0.11315985 1.0378631 0.11069568 0.19013238 0.4699511
0.24047187 0.95097554 0.09220387 0.39528736 0.44619536 0.12525232 0.5600552 0.15623803
0.11187679 0.066957675 0.00038075921 0.27551356 0.15382989 0.20549925 0.17474936 -0.077908486
0.20889708 0.16770026 0.19906712 -0.06095524 0.0009814141 0.16814488 -0.0486664 0.32494625

lstm.weight_ih_l1 f4 [256, 64]
00000000: 4ebb 1f3e f666 da3d edbc 323d 56d9 8c3e
00000010: 2027 f23d 26aa d1bd 9882 643e 3278 75bd
00000020: aa17 613d a333 c1bd d560 9c3d cca9 103e
00000030: 7b56 06bf 8a82 0fbe 946f 9bbe 83a6 2bbe
00000040: 7861 b13d 8031 87bc 7c94 c13d 4cf3 843e
00000050: 5af3 b7be ba67 60bd 54bc d4bd f743 623d
00000060: c9e4 b23e ab45 e8bc a334 d3bd ec0f 9f3c
00000070: 75fa c63e 232a 033e 6a02 da3e 2870 e73d
00000080: 3be0 9ebe f25b de3c 9fc1 733d 1f1d 04be
00000090: 97b4 413e a394 533e d188 923e 1bc2 073e
000000a0: cf0f 0a3e b8dd ccbd 67ba 2ebd 50f0 0d3f
000000b0: d77b bbbe 2493 f2bd ede0 6e3e 85e7 383d
000000c0: 7e6d aabe 8ac1 a43c 2610 453e 06a8 e7bd
000000d0: 5be7 d63e 3905 48bd 26ae b0bc 3ef3 983e
000000e0: d554 79bd 8ee2 68be 50df 7e3d 0361 203e
000000f0: 25bc 093e b015 f1be 5ddc c63e 384f 443e
00000100: ef39 5b3e 367d 59be f34d efbe 65cc 853e
00000110: 194f 80bd 61ec 35bc d5b2 e7bd 6098 0fbe
00000120: 77d5 cbbe 8848 a3be dce8 ba3d 5e5e 7d3e
00000130: a067 8cbe 49c8 3a3d f058 d2be 8b0e c4be
00000140: d2fc 3d3e cb74 87be 5e3c d3bc 95cf 8f3e
00000150: e7fd e3be 0e5d 22bd c864 4fbc 58df b2bd
00000160: 7dae 8c3e be81 ac3d 2b50 9e3e 057f 483e
00000170: bcbc 9e3e 775a 8a3d 78e4 053e b4fe d23d
00000180: 19fd e3bd cfeb a5be 2b80 f3bc 72d4 20bf
00000190: d692 c43e 797d d93d 6f61 9c3e 1552 2fbe
000001a0: 1fa7 913e a77d e7be 0c7d 1dbd d125 d83d
000001b0: 9b4c 69be ef03 8b3e dfcc a5bc a86a abbe
000001c0: febf 96be 99b8 c03e 28c4 823d 2135 7f3e
000001d0: 4534 0a3f 33c5 d83c 35ef 783e 0043 1ebd
000001e0: 2b5b 1e3d 7dcd e9bd e99f 0a3e 08f1 ca3e
000001f0: 7806 af3c ef5a 67be 04fd cd3a 27fa 9ebd
00000200: e1a9 e5be 577f b83c 9461 be3e 60fe e43d
00000210: 273b 8fbe 7a57 993d 9862 efbe a31d abbe
00000220: 700f d1bd b9aa 023e deb1 ecbe f8a2 493e
00000230: a60f 7cbe a0b9 0dbd 3c98 383e ca48 e3be
00000240: 3090 ce3c 310e 32be ae9d b93e 26ef 5dbe
00000250: 74fa ce3d e65e f5be 17c8 8bbe 0a73 113e
00000260: 0b32 f23d 5c6e 8e3e 6e4d abbe 27e8 683e
00000270: 7cfd b8bd 6437 6a3d deee 1abe b905 04bc
00000280: dd20 0abf 2215 a03d 28f5 47bc 1ca3 8f3e
00000290: be60 32be 3a78 553c 73ad 00be 489a e7bd
000002a0: 419a 67be 675b a23e 5f78 71be b865 d13d
000002b0: 1ef7 9c3c 37ac 9d3d 779b 1fbe e76a 163e
000002c0: 076b 8b3d 0dea 5fbe be92 cabc 1880 9b3e
000002d0: c910 1c3e 5c23 053f b212 87bd 37b6 b9be
000002e0: 5522 c93e 6d18 a0be 2d84 903c b11f 973e
000002f0: c527 5f3e ad5c 603e dc07 a9bd cabc 563c
00000300: 6940 923e a2cf 433e 2032 463e 3708 633e
00000310: e05f 9ebd 5803 b53e 06c0 d4bb d786 9d3e
00000320: 4aba 633e aff2 d9bb a154 843e a0eb b93d
00000330: 5b21 0dbe 976d 473e 4108 853e 6884 43be
00000340: d07a 2dbe 7998 df3e e497 9a3d 6d7f 123d
00000350: c6ff d73e e267 4abe 4862 47bd 4beb a0bb
00000360: 6eae 913e 6e7f 9bbd ee13 4bbc bc4e 2a3e
00000370: 37b4 3ebd bfe4 2ebe 29b5 a5bd eff7 a8be
00000380: f8ac 89be f64c e73d 62ee 29be 7f54 e63d
00000390: 8a6d a93e 8cea 55be 7743 9e3d 57f9 42be
000003a0: 0225 1fbe ff8b 4dbe a167 8fbc 67d2 103e
000003b0: b7b4 823e cce6 0ebe 9f2b 3a3e f5e3 3a3d
000003c0: 9192 dbbc fc39 bbbc cddf 083d b5ef 5bbe
000003d0: 5c3f 2bbc d5e0 813e 9e4f fe3c 2de8 2e3d
000003e0: 4b60 75be 5986 a0bd a5ed 4a3d 8b05 94be
000003f0: ea3f 53bd 988a 19bd 820a ddbe 22b1 9cbe
0.15598795 0.106641695 0.043637205 0.27509564 0.11823869 -0.10237531 0.22315443 -0.05992908
0.05495421 -0.09433677 0.07635657 0.14127272 -0.5247571 -0.1401464 -0.30358565 -0.16762738
0.08661169 -0.016503096 0.09452149 0.2596687 -0.3592785 -0.05478642 -0.10387483 0.055240598
0.34940174 -0.028353533 -0.10312774 0.019416772 0.3886296 0.12809043 0.42579967 0.11300689
-0.3103045 0.027143452 0.059510823 -0.12901734 0.18916546 0.20662169 0.28620008 0.13257639
0.13482593 -0.10003227 -0.042658236 0.5544481 -0.3661792 -0.11844471 0.2332799 0.04514267
-0.3328666 0.020111818 0.19244441 -0.11311345 0.41973385 -0.048833106 -0.021567415 0.2987308
-0.060871918 -0.22742674 0.062224686 0.15662007 0.13450678 -0.4708686 0.3884 0.19170845
0.21408819 -0.2123917 -0.46739158 0.26132503 -0.06265087 -0.01110372 -0.113134064 -0.1402297
-0.39811298 -0.31891274 0.09126446 0.2474303 -0.2742281 0.045601163 -0.4108348 -0.38292345
0.18553475 -0.26456293 -0.025785621 0.2808806 -0.4452965 -0.039639525 -0.0126583055 -0.08734006
0.27476874 0.08423184 0.30920538 0.19579704 0.31003368 0.06755536 0.13075435 0.10302487
-0.11132259 -0.3240647 -0.029724201 -0.62824166 0.38393277 0.10619635 0.30543086 -0.17121156
0.28447816 -0.45213053 -0.038449332 0.10554088 -0.22783129 0.2715144 -0.020239292 -0.3347981
-0.29443353 0.37640837 0.0638507 0.24922611 0.53986007 0.02646122 0.2431 -0.038638115
0.038661163 -0.11416147 0.13537563 0.39637017 0.02136539 -0.22593282 0.0015715663 -0.077625565
-0.4485617 0.022521658 0.3718382 0.11181331 -0.27974817 0.07487388 -0.4675491 -0.3342105
-0.102080226 0.12760438 -0.46229452 0.19691074 -0.24615344 -0.034600854 0.18026823 -0.4439147
0.025215238 -0.17388226 0.36253113 -0.21673259 0.10106364 -0.47923964 -0.27301094 0.1420404
0.11825951 0.27818573 -0.33457512 0.22744809 -0.09032723 0.05718173 -0.15130183 -0.008058005
-0.53956395 0.07816531 -0.012204446 0.2805413 -0.17419717 0.0130291525 -0.12566166 -0.11308724
-0.22617437 0.3171036 -0.23581074 0.102244794 0.019160803 0.07698863 -0.15586649 0.14689218
0.06807523 -0.21866627 -0.024728175 0.30371165 0.15240778 0.5200708 -0.06595363 -0.3627183
0.39284006 -0.31268635 0.017641151 0.29516366 0.21792515 0.21910353 -0.08253452 0.013106534
0.28564766 0.19122174 0.19355059 0.22171102 -0.077331305 0.35354114 -0.0064926175 0.30766937
0.22239032 -0.0066512446 0.25845817 0.09078145 -0.13782255 0.19475399 0.2598286 -0.19093478
-0.1694138 0.43671015 0.07548502 0.035766054 0.42187327 -0.1976619 -0.048677713 -0.0049108616
0.28453392 -0.07592665 -0.012394888 0.16631597 -0.046558585 -0.17079447 -0.08091194 -0.33001658
-0.26889777 0.11293976 -0.16594842 0.11246585 0.33091384 -0.20890254 0.07727712 -0.19040428
-0.15541461 -0.20072936 -0.017505469 0.14142762 0.255285 -0.1395523 0.18180703 0.045627553
-0.026803287 -0.022854798 0.033416558 -0.2147816 -0.010452118 0.25366846 0.031043824 0.04270189
-0.23962514 -0.07838125 0.04954304 -0.2891048 -0.051574625 -0.03748569 -0.4317208 -0.30603892

lstm.weight_hh_l1 f4 [256, 64]
00000000: 0cb1 073f b0b1 423e e08d 873a 44fe 003e
00000010: e94a 013e 89c6 71bd 161a aa3e b506 22be
00000020: 9788 a9bd b53b 9bbe 8231 e23e 126a febc
00000030: 699c a5bc 630d b4bd 3518 62be 85c6 6abe
00000040: 6502 2b3e d7fb 18bf 8ade dbbe 2ba0 823e
00000050: 9431 9c3e cc4e 8ebe f979 f7bd 2175 783d
00000060: ba93 573d c750 0e3f aa20 093e 2464 0dbd
00000070: 6714 cdbd 4e01 523d 591d 133f 4a4b b53e
00000080: 4259 6dbe 8326 8dbe f2e2 523e 7e49 f43d
00000090: ba6f 9fbd 0771 c1bd 2112 f43c 68b6 0b3e
000000a0: 1e51 ecbe 25f3 53be 6293 79bd c264 19be
000000b0: b0d2 ac3c 1b34 233e 9d74 2fbe c5b0 c43e
000000c0: c827 13be 7eb3 85be 3911 fdbd 4996 3bbe
000000d0: 6937 b0be fe82 9dbd a4fc 43be 2597 bd3c
000000e0: 8795 413e 6832 b5bd 86ed 45bd 0f51 f33c
000000f0: 7533 273e 7712 ec3d 6433 c63e bffc a5be
00000100: aa08 c53e ffac 6fbe a6e6 1c3e ff3a 8c3e
00000110: 4cb7 56be 7a99 8b3e 45b5 473f f7d6 133e
00000120: c277 8bbd d689 47be f1a1 ca3e 9bee febe
00000130: c5cb 303e 8c8b acbc 35ef b7be 6249 b9be
00000140: 8882 13bd b21e 35bf 0146 1a3d 4aa5 fa3e
00000150: f159 a23c d123 2ebe e937 a8be 24ce a7bd
00000160: 07ad 4cbe 3b2d 323e 6eb9 673e 802b 8e3c
00000170: 29b0 04be 7f18 bc3e 98f4 323e 3a4f 073e
00000180: 80f3 91be a964 35be 9264 eabd f639 86be
00000190: c683 55be ce5f 21bf 265a 693e 9f8f 893d
000001a0: f6f7 e2be 700c 543e 71cd a6bd 400e d33d
000001b0: 0a54 d03e 48d8 5a3d 2367 f5bb ed63 333f
000001c0: cfbe b53e 3143 b1bd 1c54 24be 2f17 74be
000001d0: 3c30 edbc fb36 cc3c 67ab ae3e 820e 5abc
000001e0: 28e0 0ebe fa80 c3be 0651 de3c 240e 2d3e
000001f0: dac4 aabe 5e8b b73d edc8 d13e ce35 1bbd
00000200: e8b9 e03d 89b7 acbd ff19 f93d 6414 b5bc
00000210: bcd6 3a3e 8f10 d63c 7317 d8bc d406 03be
00000220: 1e5f 493d 854d 703d 285b 113e 7b85 52be
00000230: 7dd6 8e3d f665 173e d381 aa3c 61ad 2c3c
00000240: 0319 e63c 662e 8abe 505b aebe 8b1f eebb
00000250: c61f 853e a9e7 02be 5d62 9d3e 8856 7d3e
00000260: d2e7 94be a23a 883e ab43 bcbd b8c1 3bbe
00000270: 88dc 063e 49b9 19be 747b 4ebe 4457 c1bd
00000280: bf89 48be 3a0f 873e f46a acbe cb84 ec3d
00000290: 7613 44bc 668a b13e 514d 71bc 51f0 a2bb
000002a0: 7536 77be 646b 503e c787 6abd 38a1 283d
000002b0: bbd2 04bf df88 9d3e 615d bc3e 88bf 083e
000002c0: c4d5 f13e 683f 813d c917 c4ba db2a f53d
000002d0: 408b 1abe 19e1 1abe a028 d3bd f4ba aebc
000002e0: da21 05bd 1525 88be f210 13bd 3449 48be
000002f0: 27e6 d93e 56e8 f1bd 8c07 13bf 9437 e53d
00000300: d6c0 423d a219 44be 12c2 853e 5d31 b8bd
00000310: 81c7 933e 0e01 a43e cfda 5f3e c51f 113e
00000320: b492 48be fbe4 3bbe bfdb ab3d 21a8 bebb
00000330: efac 9e3e bb57 15bd ac4a 9ebd 93d7 073e
00000340: f139 903d 9a53 1a3e 7a8b 223e 7fb1 6bbe
00000350: 2203 a93e 0955 113e 6a88 143e 2d4f 863e
00000360: f0a0 0a3d 04c6 ecbd 24bb b2be 9b3c 8fbd
00000370: 405f 6d3d 1e65 cabc 15bf 0c3e a8d2 9b3e
00000380: 826e ef3d be15 04be 4230 013d 6817 093d
00000390: 5033 f3be f3a5 923e 3ad4 2dbe ce26 9f3e
000003a0: 0a7b aebb 1da8 0c3e be09 a63e 5b05 103e
000003b0: fe75 37be cc81 fc3c 81f7 b9bc 8c79 05bd
000003c0: 8f79 573e 4f47 923e 9f8c 533e 5b2b 653e
000003d0: 30ac a7be 9332 72be 3ca5 7a3d c58a bc3d
000003e0: 66b4 a4bd bc45 cb3e e444 ac3d 46ea 0abe
000003f0: ba53 39be 99e3 583d 7fa3 283d 5daf 49bd
0.5300453 0.19013095 0.0010341965 0.12596995 0.12626232 -0.05902723 0.33223027 -0.15822871
-0.082780056 -0.3031899 0.44178396 -0.031056438 -0.020216184 -0.08791616 -0.22079547 -0.22927292
0.16700132 -0.5975928 -0.4294322 0.25512823 0.30506575 -0.27794492 -0.12083811 0.060658578
0.052631117 0.55592006 0.13391367 -0.03451933 -0.10013657 0.051270775 0.57466656 0.35409003
-0.2317858 -0.27568445 0.20594385 0.1192808 -0.07784982 -0.094453864 0.0297938 0.13643801
-0.46155638 -0.20698221 -0.06093157 -0.14979842 0.021096557 0.15937845 -0.17134328 0.38416114
-0.14370644 -0.26113504 -0.123568006 -0.18319048 -0.34417275 -0.076910004 -0.19139344 0.02314336
0.18904696 -0.08847505 -0.048322223 0.029701738 0.16328223 0.115269594 0.38711083 -0.32419392
0.38483173 -0.23405837 0.1532236 0.2738876 -0.2096836 0.2726553 0.7801097 0.14437471
-0.06809951 -0.19486174 0.39576676 -0.49791417 0.17265232 -0.021062635 -0.35924688 -0.361888
-0.036013156 -0.7074996 0.037664417 0.4895423 0.019818278 -0.1700585 -0.32855156 -0.08193615
-0.1998788 0.17400067 0.2262933 0.017354727 -0.12957825 0.3673744 0.17476118 0.13213816
-0.28506088 -0.1771418 -0.114449635 -0.26216096 -0.20851049 -0.6303681 0.22788295 0.06716847
-0.44329804 0.2070787 -0.081446536 0.10305452 0.40689117 0.053428918 -0.0074891015 0.7007435
0.35497138 -0.08655394 -0.1604771 -0.23836969 -0.028953664 0.02492856 0.34115145 -0.013309123
-0.13952696 -0.3818434 0.027138244 0.16899925 -0.3335331 0.08962129 0.40973607 -0.03789311
0.10972959 -0.08433444 0.121631615 -0.02210445 0.18245977 0.026130943 -0.026378369 -0.12795573
0.049162976 0.05866768 0.1419493 -0.20558731 0.06974504 0.14784989 0.020813858 0.010539384
0.028088098 -0.26988524 -0.3405404 -0.007266944 0.26000804 -0.12783684 0.30739108 0.2474004
-0.29083115 0.26607233 -0.09192594 -0.18335617 0.13170063 -0.15012087 -0.20164281 -0.09440473
-0.19583796 0.26378804 -0.3367535 0.11548766 -0.0119675305 0.34675902 -0.014727906 -0.0049724956
-0.24141867 0.20353466 -0.057258394 0.041169375 -0.5188405 0.30768487 0.36789992 0.13354313
0.47233403 0.06310922 -0.0014960702 0.11971065 -0.15092182 -0.1512493 -0.10310483 -0.02132938
-0.032502986 -0.2659079 -0.035904832 -0.19559175 0.42558405 -0.11811893 -0.5743339 0.11192241
0.047547184 -0.19150403 0.26124626 -0.0899379 0.28863147 0.32032055 0.21860813 0.14172275
-0.19587213 -0.18349068 0.083915226 -0.0058183824 0.30991313 -0.03646062 -0.07729086 0.13265829
0.070423014 0.15070954 0.15873519 -0.23016928 0.33010203 0.14192595 0.14505163 0.2623228
0.03384489 -0.11561206 -0.34908402 -0.069939815 0.057952166 -0.02470642 0.13744767 0.30434155
0.116909996 -0.12898919 0.031540163 0.033469588 -0.47500086 0.28642234 -0.1697549 0.31084293
-0.005324726 0.13736005 0.32429308 0.14064543 -0.17916104 0.03082361 -0.022701027 -0.03258662
0.21042465 0.2857003 0.20659111 0.2237982 -0.32748556 -0.23652105 0.061192736 0.09206156
-0.08042221 0.3970164 0.08411577 -0.1356593 -0.18098345 0.05295143 0.041171547 -0.049239505

lstm.bias_ih_l1 f4 [256]
00000000: e860 913e 5918 a43e e940 033e 8da2 35bd
00000010: bd27 513d 2f26 1cbe 635e a53d d0e8 873e
00000020: c125 f9bc 6f0c f4bd 5373 863d 2317 083e
00000030: aa6b cbbd e469 bb3e 15ab e6bd 4948 5c3e
00000040: 40e6 f23d fcac 12be 8a34 6cbd e2a3 92bc
00000050: d36d 36be dd2b c93d 0959 803e 5608 b53e
00000060: 6933 d33c d7db 703e c8ca 87bd 4186 1b3e
00000070: 5f52 bb3e 84af f8bc 579f 9f3d d738 dbbd
00000080: c7d8 893e cdc7 29be bd26 ae3c bd1a 0bbd
00000090: 69be ddbd b76e 203d 172c 303d d2d2 94bc
000000a0: 49ad a33d f1d0 bc3e e2e4 903e 671a 22be
000000b0: bcea 033d fc33 81bd 3f2b 6cbe ac39 9e3e
000000c0: f44e a5bd 5736 ae3d 2ec5 0e3e a99a df3e
000000d0: ff91 0cbe f398 1d3f 2374 353e 1178 243d
000000e0: 9dcb 8c3e c307 0c3d 8780 4fbd 4d02 773c
000000f0: 7325 1cbd d2a3 1bbe f038 a33d 091e 4b3f
00000100: 2fa1 42be 357e 6ebe 8cdf 0a3d 2d45 8e3e
00000110: e01d 4cbe 4fb6 a03e ced4 b4bd ef18 eebd
00000120: 5cca 93bd 58fe 7ebe 31dd b6bd 5817 083d
00000130: e53d 393e a946 83be 2a18 b93d 61f4 89be
00000140: 2260 49be ba12 e7bd e1aa b1bd 1c09 d0bd
00000150: 149c efbd 3053 1abe b697 81bc a2f9 62be
00000160: a057 9fbd 1b51 dfbd 0288 94bd 3d00 5abe
00000170: 30a1 d8be cd30 8fbe 368c a5be 595b 1cbe
00000180: 5a18 1bbe d01d a7be e7c8 82be addc ad3c
00000190: f689 d7bc fa16 1ebe cebe 393b 2008 75bb
000001a0: 32d0 f1be f978 9fbe e101 a5bd 98fc a1be
000001b0: d93b 89be 40c3 cabd a402 04be 8420 0f3e
000001c0: 64b1 a73d 96d9 773d e205 5cbe 3b9a 07be
000001d0: 7a3a 36be 754e 24be 5dac 54bd 0fe1 033d
000001e0: 4395 3cbe 3ef6 9e3e 7081 a5bd 250a b63b
000001f0: 6f2b 6ebd 1a78 05be 06b1 00bf 115e bfbe
00000200: c95c 2f3d 237f 833d cd55 5f3c a122 0b3e
00000210: 9341 c93d dc88 c53b d965 fb3d f412 cebc
00000220: 432d 663c 0ca7 e83b 05d7 753e 9685 1fbe
00000230: 7379 e73c 6487 f23d 06cc 173e 2451 0ebe
00000240: cd63 12bc 49c8 ebbd 4ec0 e3bd 6ec0 673d
00000250: 8bc1 a83d 8725 a63d 50eb 5bbe f516 d03d
00000260: e4ab 0ebe 5aa5 5a3e c63c 13bc d054 cc3b
00000270: 4fa3 9e3c db6a 1b3e b53b 853b de3a 923c
00000280: 037b a33d d2ef 63bc 1881 1f3c 359a 07be
00000290: 8a3f b93d 1026 abbe 2229 78bd fe19 bebd
000002a0: 1c3c 7dbd 69f6 d6bd 8458 053c e2ca a53d
000002b0: c6e6 083e 30ee 6e3d 509d 853c 1d2a 543d
000002c0: cfb0 48bd e19c d2bc f9b5 ad3c 6a17 f23d
000002d0: 92b0 6ebb d08f 0f3e 7af7 d23d 56e3 e03d
000002e0: f54a 04be 131d 2bbe 3030 0fbd c730 2c3d
000002f0: f804 9abd 1654 4ebe a2dd 213e 9ebd 923d
00000300: 187b 793d 845a da3e 9d2d f2bd fdcb ab39
00000310: 316f 263e 6a1c 143e 638b a2bd 10ad 3a3e
00000320: 6c04 bb3d 3494 0f3e 0f41 193e f738 3c3e
00000330: b0cb 863d 6937 bb3e 1136 2cbb 5d8c 2a3e
00000340: 6fa5 39bd 545b 243e a050 aabb d488 f93d
00000350: 1340 9ebd 7bd3 b13d 5cd7 e43d 734f e33e
00000360: dc97 13be c739 a73e 8c36 ee3d cb59 0c3c
00000370: 6882 943e 28a6 5ebc 231e 693e fa0c 503b
00000380: 5ebf e63d 2d7c e3bc a142 953d d707 d83d
00000390: 88c3 5bbe 85ee 003e 821d cb3d 9bdc 2b3e
000003a0: 2a5c cabd 1bbb e63e 83c2 6c3e 4971 20be
000003b0: 55b0 633d ce9c f93d 5e5c eabd 17ff 553e
000003c0: 5f7a 593e 7bf3 68bd ed14 2f3e 7234 fc3e
000003d0: 44c6 4f3e 9581 f13e 6bda 2d37 b222 913e
000003e0: 6a8b 83bd 0ee1 df3c 8a8a a23d 019a 2c3d
000003f0: 332a ac3b 81e2 573e 9437 633e b38d 2a3f
0.28394246 0.32049826 0.1281773 -0.044344474 0.051063288 -0.15248941 0.080746435 0.2654481
-0.03041351 -0.11916434 0.06564965 0.13290076 -0.09932645 0.36604226 -0.112631 0.2151195
0.11860323 -0.14323801 -0.057667293 -0.017900411 -0.17815332 0.098228194 0.25067928 0.35357922
0.02578135 0.23521362 -0.06630474 0.15187933 0.36586282 -0.03035713 0.077940635 -0.10704201
0.269232 -0.16580124 0.021258706 -0.033961046 -0.108273335 0.039168086 0.043010797 -0.018166933
0.07992036 0.3687816 0.28299624 -0.15830384 0.032206282 -0.06308743 -0.23063372 0.30903375
-0.080717 0.08506458 0.13942406 0.43672684 -0.13727568 0.61561507 0.17720084 0.040153567
0.27499095 0.03418709 -0.050659683 0.015076232 -0.03812165 -0.15199211 0.07969844 0.79342705
-0.19006799 -0.23290332 0.033904597 0.27787152 -0.19933271 0.3138909 -0.08829652 -0.116258495
-0.07216331 -0.24901712 -0.08928908 0.033225387 0.18090017 -0.25639847 0.09037812 -0.2694426
-0.19665578 -0.11282869 -0.08675171 -0.101579875 -0.116996914 -0.15070796 -0.015819412 -0.2216554
-0.07780385 -0.109041415 -0.07252504 -0.21289153 -0.42310476 -0.2796692 -0.32333535 -0.15269221
-0.15146008 -0.32639933 -0.255439 0.02122339 -0.026310902 -0.15438452 0.0028342488 -0.0037388876
-0.47229153 -0.31146982 -0.08056999 -0.31638026 -0.26803473 -0.09900522 -0.12891632 0.13977247
0.081881315 0.06051024 -0.21486619 -0.13242428 -0.17795745 -0.16045554 -0.05192219 0.032197054
-0.18416314 0.31047243 -0.08081329 0.0055554085 -0.05814689 -0.13034096 -0.50270116 -0.37376454
0.042813096 0.06420734 0.013631296 0.13587429 0.098269604 0.006028278 0.12275285 -0.025155522
0.014048877 0.0070999917 0.24007805 -0.15578303 0.028256154 0.1184223 0.14823923 -0.1389814
-0.008934927 -0.11512811 -0.111206636 0.05658 0.082400404 0.081126265 -0.21476483 0.10160629
-0.13932759 0.21352139 -0.0089866575 0.0062356964 0.019364981 0.15177481 0.0040659555 0.017850336
0.07982447 -0.013912158 0.009735368 -0.13242419 0.09045322 -0.33427477 -0.060586102 -0.09282301
-0.061824903 -0.10496218 0.00813878 0.080953375 0.13369283 0.058332622 0.016310364 0.051797975
-0.048996743 -0.025709571 0.021204935 0.11820872 -0.0036421162 0.14019704 0.10301109 0.10980861
-0.12919219 -0.1671031 -0.034958065 0.042038705 -0.07520479 -0.20149264 0.15807202 0.07165073
0.060908407 0.42647183 -0.11825106 0.00032767645 0.16253354 0.14463964 -0.07936742 0.1823008
0.09131703 0.14021379 0.14966224 0.18381105 0.06581819 0.36565712 -0.0026277343 0.16655107
-0.045323785 0.16050464 -0.0051975995 0.12184301 -0.07727065 0.08682915 0.11173889 0.44396552
-0.14413399 0.32661268 0.11631498 0.00856633 0.29005742 -0.013589419 0.22765402 0.0031746016
0.11266969 -0.027769173 0.07288099 0.1054837 -0.21461308 0.12590988 0.099177375 0.16783373
-0.0988086 0.45064625 0.23121075 -0.15668215 0.055588085 0.12188111 -0.11443399 0.2089809
0.21238087 -0.056872826 0.17097826 0.49258763 0.20290476 0.47169176 1.0362458e-05 0.28346783
-0.064230755 0.027328994 0.079365805 0.042139057 0.005254054 0.21082498 0.2218917 0.66622466

lstm.bias_hh_l1 f4 [256]
00000000: 492f 5a3e 7c93 d53e ed3f 8cbd 1bd4 4b3d
00000010: d791 80bd 6359 fcbc 0be7 d2bd 2d4b f83d
00000020: 5e50 2d3d 1630 7ebd 7a48 8e3c 3270 ac3d
00000030: cd8c 0dbe d173 a53e 3996 af3d 95a8 9a3e
00000040: 5ee8 e53d 8fb2 a3bd 72ea 873b 371e 3a3d
00000050: 7786 2fbe ee23 c5bd 97e0 543e ba73 b13e
00000060: 5a90 2cbc a82e 543e 01e2 ffbd a311 43bb
00000070: b252 a53e d5e9 df3d 906d 653e 4590 f13d
00000080: 6f05 cc3d f3cc 37bd 4db3 d73d 5daa 9a3c
00000090: a6fb 63be 0222 c33d 582e 873d 068f c4bd
000000a0: 2cb7 f03b 1880 be3e 7c4e ad3e b38a 35be
000000b0: f65e 2f3e 2919 7bbd 6745 6dbe 4475 883e
000000c0: c49c dabd 05f3 493d f059 a73e 55ae 793e
000000d0: d49b 37bd ba47 fd3e dba7 353e 9a7d a63d
000000e0: bdc1 f53d 4b6c d53c 67e3 97bd d6c3 10bd
000000f0: 7683 433c 74a6 a73d a0ce 90bc a71e 3d3f
00000100: 1871 86be 86d5 89be b0b2 e83d 4bbf 2f3e
00000110: 2796 81be 5e54 983d 5f67 d4bd 29cb 43be
00000120: 0b00 2abe 01c5 7bbe 5503 f1bd 149e ecbc
00000130: b2aa 813e 7ec4 85be 2a91 c9bd 28bd bcbe
00000140: 8cf2 a5bd a652 7bbd 22fd d63c 0710 52be
00000150: b2b6 44bd 7056 fcbd 2058 3b3e 2a04 aebe
00000160: 6656 d9bc 667f cb3b cd61 2abd afa2 1fbd
00000170: b828 e3be 7c96 89be 099a d7bd 8012 5fba
00000180: 0dab bdbe 6b81 b5be 23ae 45be 0720 1a3e
00000190: ae09 293b 4be0 f2bd b2f8 223c e7b0 23be
000001a0: c52a 96be 931c a4be 7361 c4bd fb46 9abe
000001b0: 8b7b 6cbe d8f2 05bd c2af 83be ef76 053e
000001c0: 7bc9 b4bd 449d 92bd 3f03 fcbd b20d 8abe
000001d0: 7198 cabc 44cc a0be 9f11 bdbd c49f 42bd
000001e0: ea22 96be 26c8 593e 50e8 ccbd 25af 19be
000001f0: 6fa8 37be 16de b0bd 7f34 a0be bdca 04bf
00000200: 8da5 2d3e 25c6 953d 66da cbba e48a 283e
00000210: a205 cd3d ba95 12be e09a 143e a7d4 52bd
00000220: 930c 2f3e cc57 80bd 339e a93e a133 4bbe
00000230: e26d 1c3e e31d 88bd cce3 723e efa8 383d
00000240: 313e c33d 764d b73d 680c bebd 0e49 5c3d
00000250: 3b66 e13c 9619 10bd c92d 39be 48ff 0a3e
00000260: 4251 56bd af2a 0c3e dc35 67bd f23c 59bd
00000270: 6803 2d3e 1642 d03d 3189 3fbe aad2 db3d
00000280: abed 46bd cd34 b63d c1c2 4e3d 156b 493d
00000290: 9ac4 cc3c 3545 f8bd 1f7e e73c c381 81bd
000002a0: 57f7 d6bc b6c6 b93d 5e01 f13d 8a20 dc3d
000002b0: 68f3 a03d 7433 c23d 3665 73bd 2074 0d3e
000002c0: fbce e63d 4e5a a83d cf7f 4f3d a3e5 2f3e
000002d0: 48ec a9bd 5d99 be3e 0e5c 433e 84b2 6cbd
000002e0: 3c58 0dba 9ccf afbd 29a6 b0bd fa4c 0cbd
000002f0: af85 cfbd a1f5 b5bd 2dc9 c03d 7730 aabb
00000300: 5686 bdbd 19f8 c33e 0bd4 843d 89d9 93bd
00000310: 76d5 903d 7a30 a4bc 0698 843d 5147 403e
00000320: 1aaa e83d 4c24 28bd c0e7 2c3e c496 7e3e
00000330: 2726 0f3c 35dd 7e3e 4fb9 f53c 4a32 873c
00000340: 14a7 ab3a 0de9 113d 6f6e 1b3e 0100 533d
00000350: 2f48 38bd eda7 593b 6442 ea3d 7e6c 9d3e
00000360: 7f98 0fbd b829 0b3f a46d 9ebd 860e 153e
00000370: 5174 833e ac1b 2c3d 57ff 5f3e f048 1bbd
00000380: 40b0 943e 2ade 7bbe d070 08bd de7e 77bd
00000390: 2728 35be 7658 723e 5690 69bd 63b5 033d
000003a0: b07e 053b c93c fc3e 92f4 683d bb90 c1bd
000003b0: c786 563d 9642 a0bd 9406 20be 96ba ee3d
000003c0: c377 b33d c8bd 2c3e 629a 4b3e fa66 863e
000003d0: cf41 153d fe00 eb3e 9be5 1b3d b7e0 1c3e
000003e0: 76d5 843c 8cc9 263d ad93 e43c 0e3c 1d3e
000003f0: 37a1 0abe 9c0e 263e 2f0e fa3c 7be9 133f
0.213071 0.41714084 -0.068481304 0.049762826 -0.06277817 -0.030804342 -0.10297974 0.12123714
0.042312972 -0.062057577 0.017368544 0.08419837 -0.13823242 0.32314923 0.085735746 0.30206743
0.11225961 -0.07993042 0.004147821 0.04543897 -0.17141138 -0.09625994 0.20788799 0.34658605
-0.010532463 0.20720923 -0.12494279 -0.002976515 0.32289654 0.10933272 0.22405076 0.11795095
0.09961974 -0.04487319 0.10532246 0.018880064 -0.22263965 0.09527971 0.06600636 -0.09597592
0.0073460545 0.37207103 0.3384894 -0.17728691 0.17126068 -0.06130329 -0.23171006 0.26651967
-0.10674432 0.049304027 0.32685804 0.24382909 -0.044826344 0.49468786 0.17739813 0.08129425
0.11999843 0.026052615 -0.074164204 -0.035343014 0.011933198 0.08186045 -0.017676651 0.73874897
-0.2625816 -0.26920718 0.11362207 0.17162816 -0.2530987 0.07437967 -0.10371279 -0.19120468
-0.16601579 -0.2458687 -0.11768214 -0.028883971 0.25325543 -0.26126474 -0.09842141 -0.36863065
-0.08102903 -0.061358117 0.02624375 -0.20513926 -0.048025794 -0.12321174 0.18295336 -0.33987552
-0.026530456 0.0062102554 -0.041597176 -0.038973507 -0.44367003 -0.26872623 -0.10527427 -0.00085095316
-0.37044564 -0.354503 -0.19304709 0.1505128 0.0025793123 -0.11859187 0.009946989 -0.15985452
-0.29329506 -0.3205305 -0.095888995 -0.3013228 -0.23094003 -0.032702297 -0.2572003 0.13033651
-0.08827492 -0.07158902 -0.12305307 -0.26963574 -0.024730893 -0.31405842 -0.092318766 -0.047515646
-0.29323512 0.21267757 -0.100052476 -0.15008219 -0.17935346 -0.086361095 -0.3129005 -0.51871854
0.16957684 0.07313184 -0.0015552759 0.16459233 0.1001084 -0.14314929 0.14512205 -0.051472332
0.1709464 -0.06266746 0.3312851 -0.19843914 0.15276292 -0.066463254 0.2371971 0.045082983
0.095333464 0.089503214 -0.0927971 0.053780608 0.027514568 -0.03518065 -0.18083872 0.13573945
-0.052323587 0.13688157 -0.05644785 -0.053036638 0.1689583 0.10168855 -0.18704678 0.1073354
-0.0485665 0.0889679 0.0504787 0.049174387 0.02499609 -0.12122575 0.028258381 -0.06323578
-0.026240988 0.09071104 0.11767839 0.10748394 0.07858926 0.0948247 -0.059422694 0.1381383
0.11269947 0.08220349 0.050658997 0.17177443 -0.0829702 0.37226382 0.19078085 -0.057787433
-0.0005391871 -0.0858452 -0.086254425 -0.034253098 -0.1013292 -0.088847406 0.09413371 -0.0051937657
-0.09254138 0.3827522 0.064857565 -0.07219226 0.070719644 -0.020042647 0.06474309 0.18777205
0.11360569 -0.04105024 0.1688528 0.248622 0.008737124 0.24889071 0.029995589 0.016503472
0.0013096058 0.035622645 0.15178846 0.051513676 -0.044990715 0.0033211664 0.11438444 0.30746835
-0.03505754 0.5436053 -0.07735756 0.14556322 0.2567468 0.042018577 0.21874748 -0.037911355
0.29040718 -0.24596468 -0.03331071 -0.060423724 -0.17691098 0.23666558 -0.057022415 0.032155406
0.00203697 0.49265125 0.056873865 -0.09451433 0.052374627 -0.078252 -0.1562751 0.11656682
0.08763077 0.16869271 0.19883111 0.2625044 0.036439713 0.45899194 0.038060766 0.15320097
0.016215067 0.040719554 0.027902449 0.1535494 -0.13538061 0.1621651 0.030524341 0.5777814
